{"format": "layers-model", "generatedBy": "keras v2.2.4-tf", "convertedBy": "TensorFlow.js Converter v1.0.1", "modelTopology": {"keras_version": "2.2.4-tf", "backend": "tensorflow", "model_config": {"class_name": "Sequential", "config": {"name": "sequential", "layers": [{"class_name": "Model", "config": {"name": "mobilenetv2_1.00_224", "layers": [{"name": "input_1", "class_name": "InputLayer", "config": {"batch_input_shape": [null, 224, 224, 3], "dtype": "float32", "sparse": false, "name": "input_1"}, "inbound_nodes": []}, {"name": "Conv1_pad", "class_name": "ZeroPadding2D", "config": {"name": "Conv1_pad", "trainable": true, "dtype": "float32", "padding": [[0, 1], [0, 1]], "data_format": "channels_last"}, "inbound_nodes": [[["input_1", 0, 0, {}]]]}, {"name": "Conv1", "class_name": "Conv2D", "config": {"name": "Conv1", "trainable": true, "dtype": "float32", "filters": 32, "kernel_size": [3, 3], "strides": [2, 2], "padding": "valid", "data_format": "channels_last", "dilation_rate": [1, 1], "activation": "linear", "use_bias": false, "kernel_initializer": {"class_name": "GlorotUniform", "config": {"seed": null}}, "bias_initializer": {"class_name": "Zeros", "config": {}}, "kernel_regularizer": null, "bias_regularizer": null, "activity_regularizer": null, "kernel_constraint": null, "bias_constraint": null}, "inbound_nodes": [[["Conv1_pad", 0, 0, {}]]]}, {"name": "bn_Conv1", "class_name": "BatchNormalization", "config": {"name": "bn_Conv1", "trainable": true, "dtype": "float32", "axis": [3], "momentum": 0.999, "epsilon": 0.001, "center": true, "scale": true, "beta_initializer": {"class_name": "Zeros", "config": {}}, "gamma_initializer": {"class_name": "Ones", "config": {}}, "moving_mean_initializer": {"class_name": "Zeros", "config": {}}, "moving_variance_initializer": {"class_name": "Ones", "config": {}}, "beta_regularizer": null, "gamma_regularizer": null, "beta_constraint": null, "gamma_constraint": null}, "inbound_nodes": [[["Conv1", 0, 0, {}]]]}, {"name": "Conv1_relu", "class_name": "ReLU", "config": {"name": "Conv1_relu", "trainable": true, "dtype": "float32", "max_value": 6.0, "negative_slope": 0.0, "threshold": 0.0}, "inbound_nodes": [[["bn_Conv1", 0, 0, {}]]]}, {"name": "expanded_conv_depthwise", "class_name": "DepthwiseConv2D", "config": {"name": "expanded_conv_depthwise", "trainable": true, "dtype": "float32", "kernel_size": [3, 3], "strides": [1, 1], "padding": "same", "data_format": "channels_last", "dilation_rate": [1, 1], "activation": "linear", "use_bias": false, "bias_initializer": {"class_name": "Zeros", "config": {}}, "bias_regularizer": null, "activity_regularizer": null, "bias_constraint": null, "depth_multiplier": 1, "depthwise_initializer": {"class_name": "GlorotUniform", "config": {"seed": null}}, "depthwise_regularizer": null, "depthwise_constraint": null}, "inbound_nodes": [[["Conv1_relu", 0, 0, {}]]]}, {"name": "expanded_conv_depthwise_BN", "class_name": "BatchNormalization", "config": {"name": "expanded_conv_depthwise_BN", "trainable": true, "dtype": "float32", "axis": [3], "momentum": 0.999, "epsilon": 0.001, "center": true, "scale": true, "beta_initializer": {"class_name": "Zeros", "config": {}}, "gamma_initializer": {"class_name": "Ones", "config": {}}, "moving_mean_initializer": {"class_name": "Zeros", "config": {}}, "moving_variance_initializer": {"class_name": "Ones", "config": {}}, "beta_regularizer": null, "gamma_regularizer": null, "beta_constraint": null, "gamma_constraint": null}, "inbound_nodes": [[["expanded_conv_depthwise", 0, 0, {}]]]}, {"name": "expanded_conv_depthwise_relu", "class_name": "ReLU", "config": {"name": "expanded_conv_depthwise_relu", "trainable": true, "dtype": "float32", "max_value": 6.0, "negative_slope": 0.0, "threshold": 0.0}, "inbound_nodes": [[["expanded_conv_depthwise_BN", 0, 0, {}]]]}, {"name": "expanded_conv_project", "class_name": "Conv2D", "config": {"name": "expanded_conv_project", "trainable": true, "dtype": "float32", "filters": 16, "kernel_size": [1, 1], "strides": [1, 1], "padding": "same", "data_format": "channels_last", "dilation_rate": [1, 1], "activation": "linear", "use_bias": false, "kernel_initializer": {"class_name": "GlorotUniform", "config": {"seed": null}}, "bias_initializer": {"class_name": "Zeros", "config": {}}, "kernel_regularizer": null, "bias_regularizer": null, "activity_regularizer": null, "kernel_constraint": null, "bias_constraint": null}, "inbound_nodes": [[["expanded_conv_depthwise_relu", 0, 0, {}]]]}, {"name": "expanded_conv_project_BN", "class_name": "BatchNormalization", "config": {"name": "expanded_conv_project_BN", "trainable": true, "dtype": "float32", "axis": [3], "momentum": 0.999, "epsilon": 0.001, "center": true, "scale": true, "beta_initializer": {"class_name": "Zeros", "config": {}}, "gamma_initializer": {"class_name": "Ones", "config": {}}, "moving_mean_initializer": {"class_name": "Zeros", "config": {}}, "moving_variance_initializer": {"class_name": "Ones", "config": {}}, "beta_regularizer": null, "gamma_regularizer": null, "beta_constraint": null, "gamma_constraint": null}, "inbound_nodes": [[["expanded_conv_project", 0, 0, {}]]]}, {"name": "block_1_expand", "class_name": "Conv2D", "config": {"name": "block_1_expand", "trainable": true, "dtype": "float32", "filters": 96, "kernel_size": [1, 1], "strides": [1, 1], "padding": "same", "data_format": "channels_last", "dilation_rate": [1, 1], "activation": "linear", "use_bias": false, "kernel_initializer": {"class_name": "GlorotUniform", "config": {"seed": null}}, "bias_initializer": {"class_name": "Zeros", "config": {}}, "kernel_regularizer": null, "bias_regularizer": null, "activity_regularizer": null, "kernel_constraint": null, "bias_constraint": null}, "inbound_nodes": [[["expanded_conv_project_BN", 0, 0, {}]]]}, {"name": "block_1_expand_BN", "class_name": "BatchNormalization", "config": {"name": "block_1_expand_BN", "trainable": true, "dtype": "float32", "axis": [3], "momentum": 0.999, "epsilon": 0.001, "center": true, "scale": true, "beta_initializer": {"class_name": "Zeros", "config": {}}, "gamma_initializer": {"class_name": "Ones", "config": {}}, "moving_mean_initializer": {"class_name": "Zeros", "config": {}}, "moving_variance_initializer": {"class_name": "Ones", "config": {}}, "beta_regularizer": null, "gamma_regularizer": null, "beta_constraint": null, "gamma_constraint": null}, "inbound_nodes": [[["block_1_expand", 0, 0, {}]]]}, {"name": "block_1_expand_relu", "class_name": "ReLU", "config": {"name": "block_1_expand_relu", "trainable": true, "dtype": "float32", "max_value": 6.0, "negative_slope": 0.0, "threshold": 0.0}, "inbound_nodes": [[["block_1_expand_BN", 0, 0, {}]]]}, {"name": "block_1_pad", "class_name": "ZeroPadding2D", "config": {"name": "block_1_pad", "trainable": true, "dtype": "float32", "padding": [[0, 1], [0, 1]], "data_format": "channels_last"}, "inbound_nodes": [[["block_1_expand_relu", 0, 0, {}]]]}, {"name": "block_1_depthwise", "class_name": "DepthwiseConv2D", "config": {"name": "block_1_depthwise", "trainable": true, "dtype": "float32", "kernel_size": [3, 3], "strides": [2, 2], "padding": "valid", "data_format": "channels_last", "dilation_rate": [1, 1], "activation": "linear", "use_bias": false, "bias_initializer": {"class_name": "Zeros", "config": {}}, "bias_regularizer": null, "activity_regularizer": null, "bias_constraint": null, "depth_multiplier": 1, "depthwise_initializer": {"class_name": "GlorotUniform", "config": {"seed": null}}, "depthwise_regularizer": null, "depthwise_constraint": null}, "inbound_nodes": [[["block_1_pad", 0, 0, {}]]]}, {"name": "block_1_depthwise_BN", "class_name": "BatchNormalization", "config": {"name": "block_1_depthwise_BN", "trainable": true, "dtype": "float32", "axis": [3], "momentum": 0.999, "epsilon": 0.001, "center": true, "scale": true, "beta_initializer": {"class_name": "Zeros", "config": {}}, "gamma_initializer": {"class_name": "Ones", "config": {}}, "moving_mean_initializer": {"class_name": "Zeros", "config": {}}, "moving_variance_initializer": {"class_name": "Ones", "config": {}}, "beta_regularizer": null, "gamma_regularizer": null, "beta_constraint": null, "gamma_constraint": null}, "inbound_nodes": [[["block_1_depthwise", 0, 0, {}]]]}, {"name": "block_1_depthwise_relu", "class_name": "ReLU", "config": {"name": "block_1_depthwise_relu", "trainable": true, "dtype": "float32", "max_value": 6.0, "negative_slope": 0.0, "threshold": 0.0}, "inbound_nodes": [[["block_1_depthwise_BN", 0, 0, {}]]]}, {"name": "block_1_project", "class_name": "Conv2D", "config": {"name": "block_1_project", "trainable": true, "dtype": "float32", "filters": 24, "kernel_size": [1, 1], "strides": [1, 1], "padding": "same", "data_format": "channels_last", "dilation_rate": [1, 1], "activation": "linear", "use_bias": false, "kernel_initializer": {"class_name": "GlorotUniform", "config": {"seed": null}}, "bias_initializer": {"class_name": "Zeros", "config": {}}, "kernel_regularizer": null, "bias_regularizer": null, "activity_regularizer": null, "kernel_constraint": null, "bias_constraint": null}, "inbound_nodes": [[["block_1_depthwise_relu", 0, 0, {}]]]}, {"name": "block_1_project_BN", "class_name": "BatchNormalization", "config": {"name": "block_1_project_BN", "trainable": true, "dtype": "float32", "axis": [3], "momentum": 0.999, "epsilon": 0.001, "center": true, "scale": true, "beta_initializer": {"class_name": "Zeros", "config": {}}, "gamma_initializer": {"class_name": "Ones", "config": {}}, "moving_mean_initializer": {"class_name": "Zeros", "config": {}}, "moving_variance_initializer": {"class_name": "Ones", "config": {}}, "beta_regularizer": null, "gamma_regularizer": null, "beta_constraint": null, "gamma_constraint": null}, "inbound_nodes": [[["block_1_project", 0, 0, {}]]]}, {"name": "block_2_expand", "class_name": "Conv2D", "config": {"name": "block_2_expand", "trainable": true, "dtype": "float32", "filters": 144, "kernel_size": [1, 1], "strides": [1, 1], "padding": "same", "data_format": "channels_last", "dilation_rate": [1, 1], "activation": "linear", "use_bias": false, "kernel_initializer": {"class_name": "GlorotUniform", "config": {"seed": null}}, "bias_initializer": {"class_name": "Zeros", "config": {}}, "kernel_regularizer": null, "bias_regularizer": null, "activity_regularizer": null, "kernel_constraint": null, "bias_constraint": null}, "inbound_nodes": [[["block_1_project_BN", 0, 0, {}]]]}, {"name": "block_2_expand_BN", "class_name": "BatchNormalization", "config": {"name": "block_2_expand_BN", "trainable": true, "dtype": "float32", "axis": [3], "momentum": 0.999, "epsilon": 0.001, "center": true, "scale": true, "beta_initializer": {"class_name": "Zeros", "config": {}}, "gamma_initializer": {"class_name": "Ones", "config": {}}, "moving_mean_initializer": {"class_name": "Zeros", "config": {}}, "moving_variance_initializer": {"class_name": "Ones", "config": {}}, "beta_regularizer": null, "gamma_regularizer": null, "beta_constraint": null, "gamma_constraint": null}, "inbound_nodes": [[["block_2_expand", 0, 0, {}]]]}, {"name": "block_2_expand_relu", "class_name": "ReLU", "config": {"name": "block_2_expand_relu", "trainable": true, "dtype": "float32", "max_value": 6.0, "negative_slope": 0.0, "threshold": 0.0}, "inbound_nodes": [[["block_2_expand_BN", 0, 0, {}]]]}, {"name": "block_2_depthwise", "class_name": "DepthwiseConv2D", "config": {"name": "block_2_depthwise", "trainable": true, "dtype": "float32", "kernel_size": [3, 3], "strides": [1, 1], "padding": "same", "data_format": "channels_last", "dilation_rate": [1, 1], "activation": "linear", "use_bias": false, "bias_initializer": {"class_name": "Zeros", "config": {}}, "bias_regularizer": null, "activity_regularizer": null, "bias_constraint": null, "depth_multiplier": 1, "depthwise_initializer": {"class_name": "GlorotUniform", "config": {"seed": null}}, "depthwise_regularizer": null, "depthwise_constraint": null}, "inbound_nodes": [[["block_2_expand_relu", 0, 0, {}]]]}, {"name": "block_2_depthwise_BN", "class_name": "BatchNormalization", "config": {"name": "block_2_depthwise_BN", "trainable": true, "dtype": "float32", "axis": [3], "momentum": 0.999, "epsilon": 0.001, "center": true, "scale": true, "beta_initializer": {"class_name": "Zeros", "config": {}}, "gamma_initializer": {"class_name": "Ones", "config": {}}, "moving_mean_initializer": {"class_name": "Zeros", "config": {}}, "moving_variance_initializer": {"class_name": "Ones", "config": {}}, "beta_regularizer": null, "gamma_regularizer": null, "beta_constraint": null, "gamma_constraint": null}, "inbound_nodes": [[["block_2_depthwise", 0, 0, {}]]]}, {"name": "block_2_depthwise_relu", "class_name": "ReLU", "config": {"name": "block_2_depthwise_relu", "trainable": true, "dtype": "float32", "max_value": 6.0, "negative_slope": 0.0, "threshold": 0.0}, "inbound_nodes": [[["block_2_depthwise_BN", 0, 0, {}]]]}, {"name": "block_2_project", "class_name": "Conv2D", "config": {"name": "block_2_project", "trainable": true, "dtype": "float32", "filters": 24, "kernel_size": [1, 1], "strides": [1, 1], "padding": "same", "data_format": "channels_last", "dilation_rate": [1, 1], "activation": "linear", "use_bias": false, "kernel_initializer": {"class_name": "GlorotUniform", "config": {"seed": null}}, "bias_initializer": {"class_name": "Zeros", "config": {}}, "kernel_regularizer": null, "bias_regularizer": null, "activity_regularizer": null, "kernel_constraint": null, "bias_constraint": null}, "inbound_nodes": [[["block_2_depthwise_relu", 0, 0, {}]]]}, {"name": "block_2_project_BN", "class_name": "BatchNormalization", "config": {"name": "block_2_project_BN", "trainable": true, "dtype": "float32", "axis": [3], "momentum": 0.999, "epsilon": 0.001, "center": true, "scale": true, "beta_initializer": {"class_name": "Zeros", "config": {}}, "gamma_initializer": {"class_name": "Ones", "config": {}}, "moving_mean_initializer": {"class_name": "Zeros", "config": {}}, "moving_variance_initializer": {"class_name": "Ones", "config": {}}, "beta_regularizer": null, "gamma_regularizer": null, "beta_constraint": null, "gamma_constraint": null}, "inbound_nodes": [[["block_2_project", 0, 0, {}]]]}, {"name": "block_2_add", "class_name": "Add", "config": {"name": "block_2_add", "trainable": true, "dtype": "float32"}, "inbound_nodes": [[["block_1_project_BN", 0, 0, {}], ["block_2_project_BN", 0, 0, {}]]]}, {"name": "block_3_expand", "class_name": "Conv2D", "config": {"name": "block_3_expand", "trainable": true, "dtype": "float32", "filters": 144, "kernel_size": [1, 1], "strides": [1, 1], "padding": "same", "data_format": "channels_last", "dilation_rate": [1, 1], "activation": "linear", "use_bias": false, "kernel_initializer": {"class_name": "GlorotUniform", "config": {"seed": null}}, "bias_initializer": {"class_name": "Zeros", "config": {}}, "kernel_regularizer": null, "bias_regularizer": null, "activity_regularizer": null, "kernel_constraint": null, "bias_constraint": null}, "inbound_nodes": [[["block_2_add", 0, 0, {}]]]}, {"name": "block_3_expand_BN", "class_name": "BatchNormalization", "config": {"name": "block_3_expand_BN", "trainable": true, "dtype": "float32", "axis": [3], "momentum": 0.999, "epsilon": 0.001, "center": true, "scale": true, "beta_initializer": {"class_name": "Zeros", "config": {}}, "gamma_initializer": {"class_name": "Ones", "config": {}}, "moving_mean_initializer": {"class_name": "Zeros", "config": {}}, "moving_variance_initializer": {"class_name": "Ones", "config": {}}, "beta_regularizer": null, "gamma_regularizer": null, "beta_constraint": null, "gamma_constraint": null}, "inbound_nodes": [[["block_3_expand", 0, 0, {}]]]}, {"name": "block_3_expand_relu", "class_name": "ReLU", "config": {"name": "block_3_expand_relu", "trainable": true, "dtype": "float32", "max_value": 6.0, "negative_slope": 0.0, "threshold": 0.0}, "inbound_nodes": [[["block_3_expand_BN", 0, 0, {}]]]}, {"name": "block_3_pad", "class_name": "ZeroPadding2D", "config": {"name": "block_3_pad", "trainable": true, "dtype": "float32", "padding": [[0, 1], [0, 1]], "data_format": "channels_last"}, "inbound_nodes": [[["block_3_expand_relu", 0, 0, {}]]]}, {"name": "block_3_depthwise", "class_name": "DepthwiseConv2D", "config": {"name": "block_3_depthwise", "trainable": true, "dtype": "float32", "kernel_size": [3, 3], "strides": [2, 2], "padding": "valid", "data_format": "channels_last", "dilation_rate": [1, 1], "activation": "linear", "use_bias": false, "bias_initializer": {"class_name": "Zeros", "config": {}}, "bias_regularizer": null, "activity_regularizer": null, "bias_constraint": null, "depth_multiplier": 1, "depthwise_initializer": {"class_name": "GlorotUniform", "config": {"seed": null}}, "depthwise_regularizer": null, "depthwise_constraint": null}, "inbound_nodes": [[["block_3_pad", 0, 0, {}]]]}, {"name": "block_3_depthwise_BN", "class_name": "BatchNormalization", "config": {"name": "block_3_depthwise_BN", "trainable": true, "dtype": "float32", "axis": [3], "momentum": 0.999, "epsilon": 0.001, "center": true, "scale": true, "beta_initializer": {"class_name": "Zeros", "config": {}}, "gamma_initializer": {"class_name": "Ones", "config": {}}, "moving_mean_initializer": {"class_name": "Zeros", "config": {}}, "moving_variance_initializer": {"class_name": "Ones", "config": {}}, "beta_regularizer": null, "gamma_regularizer": null, "beta_constraint": null, "gamma_constraint": null}, "inbound_nodes": [[["block_3_depthwise", 0, 0, {}]]]}, {"name": "block_3_depthwise_relu", "class_name": "ReLU", "config": {"name": "block_3_depthwise_relu", "trainable": true, "dtype": "float32", "max_value": 6.0, "negative_slope": 0.0, "threshold": 0.0}, "inbound_nodes": [[["block_3_depthwise_BN", 0, 0, {}]]]}, {"name": "block_3_project", "class_name": "Conv2D", "config": {"name": "block_3_project", "trainable": true, "dtype": "float32", "filters": 32, "kernel_size": [1, 1], "strides": [1, 1], "padding": "same", "data_format": "channels_last", "dilation_rate": [1, 1], "activation": "linear", "use_bias": false, "kernel_initializer": {"class_name": "GlorotUniform", "config": {"seed": null}}, "bias_initializer": {"class_name": "Zeros", "config": {}}, "kernel_regularizer": null, "bias_regularizer": null, "activity_regularizer": null, "kernel_constraint": null, "bias_constraint": null}, "inbound_nodes": [[["block_3_depthwise_relu", 0, 0, {}]]]}, {"name": "block_3_project_BN", "class_name": "BatchNormalization", "config": {"name": "block_3_project_BN", "trainable": true, "dtype": "float32", "axis": [3], "momentum": 0.999, "epsilon": 0.001, "center": true, "scale": true, "beta_initializer": {"class_name": "Zeros", "config": {}}, "gamma_initializer": {"class_name": "Ones", "config": {}}, "moving_mean_initializer": {"class_name": "Zeros", "config": {}}, "moving_variance_initializer": {"class_name": "Ones", "config": {}}, "beta_regularizer": null, "gamma_regularizer": null, "beta_constraint": null, "gamma_constraint": null}, "inbound_nodes": [[["block_3_project", 0, 0, {}]]]}, {"name": "block_4_expand", "class_name": "Conv2D", "config": {"name": "block_4_expand", "trainable": true, "dtype": "float32", "filters": 192, "kernel_size": [1, 1], "strides": [1, 1], "padding": "same", "data_format": "channels_last", "dilation_rate": [1, 1], "activation": "linear", "use_bias": false, "kernel_initializer": {"class_name": "GlorotUniform", "config": {"seed": null}}, "bias_initializer": {"class_name": "Zeros", "config": {}}, "kernel_regularizer": null, "bias_regularizer": null, "activity_regularizer": null, "kernel_constraint": null, "bias_constraint": null}, "inbound_nodes": [[["block_3_project_BN", 0, 0, {}]]]}, {"name": "block_4_expand_BN", "class_name": "BatchNormalization", "config": {"name": "block_4_expand_BN", "trainable": true, "dtype": "float32", "axis": [3], "momentum": 0.999, "epsilon": 0.001, "center": true, "scale": true, "beta_initializer": {"class_name": "Zeros", "config": {}}, "gamma_initializer": {"class_name": "Ones", "config": {}}, "moving_mean_initializer": {"class_name": "Zeros", "config": {}}, "moving_variance_initializer": {"class_name": "Ones", "config": {}}, "beta_regularizer": null, "gamma_regularizer": null, "beta_constraint": null, "gamma_constraint": null}, "inbound_nodes": [[["block_4_expand", 0, 0, {}]]]}, {"name": "block_4_expand_relu", "class_name": "ReLU", "config": {"name": "block_4_expand_relu", "trainable": true, "dtype": "float32", "max_value": 6.0, "negative_slope": 0.0, "threshold": 0.0}, "inbound_nodes": [[["block_4_expand_BN", 0, 0, {}]]]}, {"name": "block_4_depthwise", "class_name": "DepthwiseConv2D", "config": {"name": "block_4_depthwise", "trainable": true, "dtype": "float32", "kernel_size": [3, 3], "strides": [1, 1], "padding": "same", "data_format": "channels_last", "dilation_rate": [1, 1], "activation": "linear", "use_bias": false, "bias_initializer": {"class_name": "Zeros", "config": {}}, "bias_regularizer": null, "activity_regularizer": null, "bias_constraint": null, "depth_multiplier": 1, "depthwise_initializer": {"class_name": "GlorotUniform", "config": {"seed": null}}, "depthwise_regularizer": null, "depthwise_constraint": null}, "inbound_nodes": [[["block_4_expand_relu", 0, 0, {}]]]}, {"name": "block_4_depthwise_BN", "class_name": "BatchNormalization", "config": {"name": "block_4_depthwise_BN", "trainable": true, "dtype": "float32", "axis": [3], "momentum": 0.999, "epsilon": 0.001, "center": true, "scale": true, "beta_initializer": {"class_name": "Zeros", "config": {}}, "gamma_initializer": {"class_name": "Ones", "config": {}}, "moving_mean_initializer": {"class_name": "Zeros", "config": {}}, "moving_variance_initializer": {"class_name": "Ones", "config": {}}, "beta_regularizer": null, "gamma_regularizer": null, "beta_constraint": null, "gamma_constraint": null}, "inbound_nodes": [[["block_4_depthwise", 0, 0, {}]]]}, {"name": "block_4_depthwise_relu", "class_name": "ReLU", "config": {"name": "block_4_depthwise_relu", "trainable": true, "dtype": "float32", "max_value": 6.0, "negative_slope": 0.0, "threshold": 0.0}, "inbound_nodes": [[["block_4_depthwise_BN", 0, 0, {}]]]}, {"name": "block_4_project", "class_name": "Conv2D", "config": {"name": "block_4_project", "trainable": true, "dtype": "float32", "filters": 32, "kernel_size": [1, 1], "strides": [1, 1], "padding": "same", "data_format": "channels_last", "dilation_rate": [1, 1], "activation": "linear", "use_bias": false, "kernel_initializer": {"class_name": "GlorotUniform", "config": {"seed": null}}, "bias_initializer": {"class_name": "Zeros", "config": {}}, "kernel_regularizer": null, "bias_regularizer": null, "activity_regularizer": null, "kernel_constraint": null, "bias_constraint": null}, "inbound_nodes": [[["block_4_depthwise_relu", 0, 0, {}]]]}, {"name": "block_4_project_BN", "class_name": "BatchNormalization", "config": {"name": "block_4_project_BN", "trainable": true, "dtype": "float32", "axis": [3], "momentum": 0.999, "epsilon": 0.001, "center": true, "scale": true, "beta_initializer": {"class_name": "Zeros", "config": {}}, "gamma_initializer": {"class_name": "Ones", "config": {}}, "moving_mean_initializer": {"class_name": "Zeros", "config": {}}, "moving_variance_initializer": {"class_name": "Ones", "config": {}}, "beta_regularizer": null, "gamma_regularizer": null, "beta_constraint": null, "gamma_constraint": null}, "inbound_nodes": [[["block_4_project", 0, 0, {}]]]}, {"name": "block_4_add", "class_name": "Add", "config": {"name": "block_4_add", "trainable": true, "dtype": "float32"}, "inbound_nodes": [[["block_3_project_BN", 0, 0, {}], ["block_4_project_BN", 0, 0, {}]]]}, {"name": "block_5_expand", "class_name": "Conv2D", "config": {"name": "block_5_expand", "trainable": true, "dtype": "float32", "filters": 192, "kernel_size": [1, 1], "strides": [1, 1], "padding": "same", "data_format": "channels_last", "dilation_rate": [1, 1], "activation": "linear", "use_bias": false, "kernel_initializer": {"class_name": "GlorotUniform", "config": {"seed": null}}, "bias_initializer": {"class_name": "Zeros", "config": {}}, "kernel_regularizer": null, "bias_regularizer": null, "activity_regularizer": null, "kernel_constraint": null, "bias_constraint": null}, "inbound_nodes": [[["block_4_add", 0, 0, {}]]]}, {"name": "block_5_expand_BN", "class_name": "BatchNormalization", "config": {"name": "block_5_expand_BN", "trainable": true, "dtype": "float32", "axis": [3], "momentum": 0.999, "epsilon": 0.001, "center": true, "scale": true, "beta_initializer": {"class_name": "Zeros", "config": {}}, "gamma_initializer": {"class_name": "Ones", "config": {}}, "moving_mean_initializer": {"class_name": "Zeros", "config": {}}, "moving_variance_initializer": {"class_name": "Ones", "config": {}}, "beta_regularizer": null, "gamma_regularizer": null, "beta_constraint": null, "gamma_constraint": null}, "inbound_nodes": [[["block_5_expand", 0, 0, {}]]]}, {"name": "block_5_expand_relu", "class_name": "ReLU", "config": {"name": "block_5_expand_relu", "trainable": true, "dtype": "float32", "max_value": 6.0, "negative_slope": 0.0, "threshold": 0.0}, "inbound_nodes": [[["block_5_expand_BN", 0, 0, {}]]]}, {"name": "block_5_depthwise", "class_name": "DepthwiseConv2D", "config": {"name": "block_5_depthwise", "trainable": true, "dtype": "float32", "kernel_size": [3, 3], "strides": [1, 1], "padding": "same", "data_format": "channels_last", "dilation_rate": [1, 1], "activation": "linear", "use_bias": false, "bias_initializer": {"class_name": "Zeros", "config": {}}, "bias_regularizer": null, "activity_regularizer": null, "bias_constraint": null, "depth_multiplier": 1, "depthwise_initializer": {"class_name": "GlorotUniform", "config": {"seed": null}}, "depthwise_regularizer": null, "depthwise_constraint": null}, "inbound_nodes": [[["block_5_expand_relu", 0, 0, {}]]]}, {"name": "block_5_depthwise_BN", "class_name": "BatchNormalization", "config": {"name": "block_5_depthwise_BN", "trainable": true, "dtype": "float32", "axis": [3], "momentum": 0.999, "epsilon": 0.001, "center": true, "scale": true, "beta_initializer": {"class_name": "Zeros", "config": {}}, "gamma_initializer": {"class_name": "Ones", "config": {}}, "moving_mean_initializer": {"class_name": "Zeros", "config": {}}, "moving_variance_initializer": {"class_name": "Ones", "config": {}}, "beta_regularizer": null, "gamma_regularizer": null, "beta_constraint": null, "gamma_constraint": null}, "inbound_nodes": [[["block_5_depthwise", 0, 0, {}]]]}, {"name": "block_5_depthwise_relu", "class_name": "ReLU", "config": {"name": "block_5_depthwise_relu", "trainable": true, "dtype": "float32", "max_value": 6.0, "negative_slope": 0.0, "threshold": 0.0}, "inbound_nodes": [[["block_5_depthwise_BN", 0, 0, {}]]]}, {"name": "block_5_project", "class_name": "Conv2D", "config": {"name": "block_5_project", "trainable": true, "dtype": "float32", "filters": 32, "kernel_size": [1, 1], "strides": [1, 1], "padding": "same", "data_format": "channels_last", "dilation_rate": [1, 1], "activation": "linear", "use_bias": false, "kernel_initializer": {"class_name": "GlorotUniform", "config": {"seed": null}}, "bias_initializer": {"class_name": "Zeros", "config": {}}, "kernel_regularizer": null, "bias_regularizer": null, "activity_regularizer": null, "kernel_constraint": null, "bias_constraint": null}, "inbound_nodes": [[["block_5_depthwise_relu", 0, 0, {}]]]}, {"name": "block_5_project_BN", "class_name": "BatchNormalization", "config": {"name": "block_5_project_BN", "trainable": true, "dtype": "float32", "axis": [3], "momentum": 0.999, "epsilon": 0.001, "center": true, "scale": true, "beta_initializer": {"class_name": "Zeros", "config": {}}, "gamma_initializer": {"class_name": "Ones", "config": {}}, "moving_mean_initializer": {"class_name": "Zeros", "config": {}}, "moving_variance_initializer": {"class_name": "Ones", "config": {}}, "beta_regularizer": null, "gamma_regularizer": null, "beta_constraint": null, "gamma_constraint": null}, "inbound_nodes": [[["block_5_project", 0, 0, {}]]]}, {"name": "block_5_add", "class_name": "Add", "config": {"name": "block_5_add", "trainable": true, "dtype": "float32"}, "inbound_nodes": [[["block_4_add", 0, 0, {}], ["block_5_project_BN", 0, 0, {}]]]}, {"name": "block_6_expand", "class_name": "Conv2D", "config": {"name": "block_6_expand", "trainable": true, "dtype": "float32", "filters": 192, "kernel_size": [1, 1], "strides": [1, 1], "padding": "same", "data_format": "channels_last", "dilation_rate": [1, 1], "activation": "linear", "use_bias": false, "kernel_initializer": {"class_name": "GlorotUniform", "config": {"seed": null}}, "bias_initializer": {"class_name": "Zeros", "config": {}}, "kernel_regularizer": null, "bias_regularizer": null, "activity_regularizer": null, "kernel_constraint": null, "bias_constraint": null}, "inbound_nodes": [[["block_5_add", 0, 0, {}]]]}, {"name": "block_6_expand_BN", "class_name": "BatchNormalization", "config": {"name": "block_6_expand_BN", "trainable": true, "dtype": "float32", "axis": [3], "momentum": 0.999, "epsilon": 0.001, "center": true, "scale": true, "beta_initializer": {"class_name": "Zeros", "config": {}}, "gamma_initializer": {"class_name": "Ones", "config": {}}, "moving_mean_initializer": {"class_name": "Zeros", "config": {}}, "moving_variance_initializer": {"class_name": "Ones", "config": {}}, "beta_regularizer": null, "gamma_regularizer": null, "beta_constraint": null, "gamma_constraint": null}, "inbound_nodes": [[["block_6_expand", 0, 0, {}]]]}, {"name": "block_6_expand_relu", "class_name": "ReLU", "config": {"name": "block_6_expand_relu", "trainable": true, "dtype": "float32", "max_value": 6.0, "negative_slope": 0.0, "threshold": 0.0}, "inbound_nodes": [[["block_6_expand_BN", 0, 0, {}]]]}, {"name": "block_6_pad", "class_name": "ZeroPadding2D", "config": {"name": "block_6_pad", "trainable": true, "dtype": "float32", "padding": [[0, 1], [0, 1]], "data_format": "channels_last"}, "inbound_nodes": [[["block_6_expand_relu", 0, 0, {}]]]}, {"name": "block_6_depthwise", "class_name": "DepthwiseConv2D", "config": {"name": "block_6_depthwise", "trainable": true, "dtype": "float32", "kernel_size": [3, 3], "strides": [2, 2], "padding": "valid", "data_format": "channels_last", "dilation_rate": [1, 1], "activation": "linear", "use_bias": false, "bias_initializer": {"class_name": "Zeros", "config": {}}, "bias_regularizer": null, "activity_regularizer": null, "bias_constraint": null, "depth_multiplier": 1, "depthwise_initializer": {"class_name": "GlorotUniform", "config": {"seed": null}}, "depthwise_regularizer": null, "depthwise_constraint": null}, "inbound_nodes": [[["block_6_pad", 0, 0, {}]]]}, {"name": "block_6_depthwise_BN", "class_name": "BatchNormalization", "config": {"name": "block_6_depthwise_BN", "trainable": true, "dtype": "float32", "axis": [3], "momentum": 0.999, "epsilon": 0.001, "center": true, "scale": true, "beta_initializer": {"class_name": "Zeros", "config": {}}, "gamma_initializer": {"class_name": "Ones", "config": {}}, "moving_mean_initializer": {"class_name": "Zeros", "config": {}}, "moving_variance_initializer": {"class_name": "Ones", "config": {}}, "beta_regularizer": null, "gamma_regularizer": null, "beta_constraint": null, "gamma_constraint": null}, "inbound_nodes": [[["block_6_depthwise", 0, 0, {}]]]}, {"name": "block_6_depthwise_relu", "class_name": "ReLU", "config": {"name": "block_6_depthwise_relu", "trainable": true, "dtype": "float32", "max_value": 6.0, "negative_slope": 0.0, "threshold": 0.0}, "inbound_nodes": [[["block_6_depthwise_BN", 0, 0, {}]]]}, {"name": "block_6_project", "class_name": "Conv2D", "config": {"name": "block_6_project", "trainable": true, "dtype": "float32", "filters": 64, "kernel_size": [1, 1], "strides": [1, 1], "padding": "same", "data_format": "channels_last", "dilation_rate": [1, 1], "activation": "linear", "use_bias": false, "kernel_initializer": {"class_name": "GlorotUniform", "config": {"seed": null}}, "bias_initializer": {"class_name": "Zeros", "config": {}}, "kernel_regularizer": null, "bias_regularizer": null, "activity_regularizer": null, "kernel_constraint": null, "bias_constraint": null}, "inbound_nodes": [[["block_6_depthwise_relu", 0, 0, {}]]]}, {"name": "block_6_project_BN", "class_name": "BatchNormalization", "config": {"name": "block_6_project_BN", "trainable": true, "dtype": "float32", "axis": [3], "momentum": 0.999, "epsilon": 0.001, "center": true, "scale": true, "beta_initializer": {"class_name": "Zeros", "config": {}}, "gamma_initializer": {"class_name": "Ones", "config": {}}, "moving_mean_initializer": {"class_name": "Zeros", "config": {}}, "moving_variance_initializer": {"class_name": "Ones", "config": {}}, "beta_regularizer": null, "gamma_regularizer": null, "beta_constraint": null, "gamma_constraint": null}, "inbound_nodes": [[["block_6_project", 0, 0, {}]]]}, {"name": "block_7_expand", "class_name": "Conv2D", "config": {"name": "block_7_expand", "trainable": true, "dtype": "float32", "filters": 384, "kernel_size": [1, 1], "strides": [1, 1], "padding": "same", "data_format": "channels_last", "dilation_rate": [1, 1], "activation": "linear", "use_bias": false, "kernel_initializer": {"class_name": "GlorotUniform", "config": {"seed": null}}, "bias_initializer": {"class_name": "Zeros", "config": {}}, "kernel_regularizer": null, "bias_regularizer": null, "activity_regularizer": null, "kernel_constraint": null, "bias_constraint": null}, "inbound_nodes": [[["block_6_project_BN", 0, 0, {}]]]}, {"name": "block_7_expand_BN", "class_name": "BatchNormalization", "config": {"name": "block_7_expand_BN", "trainable": true, "dtype": "float32", "axis": [3], "momentum": 0.999, "epsilon": 0.001, "center": true, "scale": true, "beta_initializer": {"class_name": "Zeros", "config": {}}, "gamma_initializer": {"class_name": "Ones", "config": {}}, "moving_mean_initializer": {"class_name": "Zeros", "config": {}}, "moving_variance_initializer": {"class_name": "Ones", "config": {}}, "beta_regularizer": null, "gamma_regularizer": null, "beta_constraint": null, "gamma_constraint": null}, "inbound_nodes": [[["block_7_expand", 0, 0, {}]]]}, {"name": "block_7_expand_relu", "class_name": "ReLU", "config": {"name": "block_7_expand_relu", "trainable": true, "dtype": "float32", "max_value": 6.0, "negative_slope": 0.0, "threshold": 0.0}, "inbound_nodes": [[["block_7_expand_BN", 0, 0, {}]]]}, {"name": "block_7_depthwise", "class_name": "DepthwiseConv2D", "config": {"name": "block_7_depthwise", "trainable": true, "dtype": "float32", "kernel_size": [3, 3], "strides": [1, 1], "padding": "same", "data_format": "channels_last", "dilation_rate": [1, 1], "activation": "linear", "use_bias": false, "bias_initializer": {"class_name": "Zeros", "config": {}}, "bias_regularizer": null, "activity_regularizer": null, "bias_constraint": null, "depth_multiplier": 1, "depthwise_initializer": {"class_name": "GlorotUniform", "config": {"seed": null}}, "depthwise_regularizer": null, "depthwise_constraint": null}, "inbound_nodes": [[["block_7_expand_relu", 0, 0, {}]]]}, {"name": "block_7_depthwise_BN", "class_name": "BatchNormalization", "config": {"name": "block_7_depthwise_BN", "trainable": true, "dtype": "float32", "axis": [3], "momentum": 0.999, "epsilon": 0.001, "center": true, "scale": true, "beta_initializer": {"class_name": "Zeros", "config": {}}, "gamma_initializer": {"class_name": "Ones", "config": {}}, "moving_mean_initializer": {"class_name": "Zeros", "config": {}}, "moving_variance_initializer": {"class_name": "Ones", "config": {}}, "beta_regularizer": null, "gamma_regularizer": null, "beta_constraint": null, "gamma_constraint": null}, "inbound_nodes": [[["block_7_depthwise", 0, 0, {}]]]}, {"name": "block_7_depthwise_relu", "class_name": "ReLU", "config": {"name": "block_7_depthwise_relu", "trainable": true, "dtype": "float32", "max_value": 6.0, "negative_slope": 0.0, "threshold": 0.0}, "inbound_nodes": [[["block_7_depthwise_BN", 0, 0, {}]]]}, {"name": "block_7_project", "class_name": "Conv2D", "config": {"name": "block_7_project", "trainable": true, "dtype": "float32", "filters": 64, "kernel_size": [1, 1], "strides": [1, 1], "padding": "same", "data_format": "channels_last", "dilation_rate": [1, 1], "activation": "linear", "use_bias": false, "kernel_initializer": {"class_name": "GlorotUniform", "config": {"seed": null}}, "bias_initializer": {"class_name": "Zeros", "config": {}}, "kernel_regularizer": null, "bias_regularizer": null, "activity_regularizer": null, "kernel_constraint": null, "bias_constraint": null}, "inbound_nodes": [[["block_7_depthwise_relu", 0, 0, {}]]]}, {"name": "block_7_project_BN", "class_name": "BatchNormalization", "config": {"name": "block_7_project_BN", "trainable": true, "dtype": "float32", "axis": [3], "momentum": 0.999, "epsilon": 0.001, "center": true, "scale": true, "beta_initializer": {"class_name": "Zeros", "config": {}}, "gamma_initializer": {"class_name": "Ones", "config": {}}, "moving_mean_initializer": {"class_name": "Zeros", "config": {}}, "moving_variance_initializer": {"class_name": "Ones", "config": {}}, "beta_regularizer": null, "gamma_regularizer": null, "beta_constraint": null, "gamma_constraint": null}, "inbound_nodes": [[["block_7_project", 0, 0, {}]]]}, {"name": "block_7_add", "class_name": "Add", "config": {"name": "block_7_add", "trainable": true, "dtype": "float32"}, "inbound_nodes": [[["block_6_project_BN", 0, 0, {}], ["block_7_project_BN", 0, 0, {}]]]}, {"name": "block_8_expand", "class_name": "Conv2D", "config": {"name": "block_8_expand", "trainable": true, "dtype": "float32", "filters": 384, "kernel_size": [1, 1], "strides": [1, 1], "padding": "same", "data_format": "channels_last", "dilation_rate": [1, 1], "activation": "linear", "use_bias": false, "kernel_initializer": {"class_name": "GlorotUniform", "config": {"seed": null}}, "bias_initializer": {"class_name": "Zeros", "config": {}}, "kernel_regularizer": null, "bias_regularizer": null, "activity_regularizer": null, "kernel_constraint": null, "bias_constraint": null}, "inbound_nodes": [[["block_7_add", 0, 0, {}]]]}, {"name": "block_8_expand_BN", "class_name": "BatchNormalization", "config": {"name": "block_8_expand_BN", "trainable": true, "dtype": "float32", "axis": [3], "momentum": 0.999, "epsilon": 0.001, "center": true, "scale": true, "beta_initializer": {"class_name": "Zeros", "config": {}}, "gamma_initializer": {"class_name": "Ones", "config": {}}, "moving_mean_initializer": {"class_name": "Zeros", "config": {}}, "moving_variance_initializer": {"class_name": "Ones", "config": {}}, "beta_regularizer": null, "gamma_regularizer": null, "beta_constraint": null, "gamma_constraint": null}, "inbound_nodes": [[["block_8_expand", 0, 0, {}]]]}, {"name": "block_8_expand_relu", "class_name": "ReLU", "config": {"name": "block_8_expand_relu", "trainable": true, "dtype": "float32", "max_value": 6.0, "negative_slope": 0.0, "threshold": 0.0}, "inbound_nodes": [[["block_8_expand_BN", 0, 0, {}]]]}, {"name": "block_8_depthwise", "class_name": "DepthwiseConv2D", "config": {"name": "block_8_depthwise", "trainable": true, "dtype": "float32", "kernel_size": [3, 3], "strides": [1, 1], "padding": "same", "data_format": "channels_last", "dilation_rate": [1, 1], "activation": "linear", "use_bias": false, "bias_initializer": {"class_name": "Zeros", "config": {}}, "bias_regularizer": null, "activity_regularizer": null, "bias_constraint": null, "depth_multiplier": 1, "depthwise_initializer": {"class_name": "GlorotUniform", "config": {"seed": null}}, "depthwise_regularizer": null, "depthwise_constraint": null}, "inbound_nodes": [[["block_8_expand_relu", 0, 0, {}]]]}, {"name": "block_8_depthwise_BN", "class_name": "BatchNormalization", "config": {"name": "block_8_depthwise_BN", "trainable": true, "dtype": "float32", "axis": [3], "momentum": 0.999, "epsilon": 0.001, "center": true, "scale": true, "beta_initializer": {"class_name": "Zeros", "config": {}}, "gamma_initializer": {"class_name": "Ones", "config": {}}, "moving_mean_initializer": {"class_name": "Zeros", "config": {}}, "moving_variance_initializer": {"class_name": "Ones", "config": {}}, "beta_regularizer": null, "gamma_regularizer": null, "beta_constraint": null, "gamma_constraint": null}, "inbound_nodes": [[["block_8_depthwise", 0, 0, {}]]]}, {"name": "block_8_depthwise_relu", "class_name": "ReLU", "config": {"name": "block_8_depthwise_relu", "trainable": true, "dtype": "float32", "max_value": 6.0, "negative_slope": 0.0, "threshold": 0.0}, "inbound_nodes": [[["block_8_depthwise_BN", 0, 0, {}]]]}, {"name": "block_8_project", "class_name": "Conv2D", "config": {"name": "block_8_project", "trainable": true, "dtype": "float32", "filters": 64, "kernel_size": [1, 1], "strides": [1, 1], "padding": "same", "data_format": "channels_last", "dilation_rate": [1, 1], "activation": "linear", "use_bias": false, "kernel_initializer": {"class_name": "GlorotUniform", "config": {"seed": null}}, "bias_initializer": {"class_name": "Zeros", "config": {}}, "kernel_regularizer": null, "bias_regularizer": null, "activity_regularizer": null, "kernel_constraint": null, "bias_constraint": null}, "inbound_nodes": [[["block_8_depthwise_relu", 0, 0, {}]]]}, {"name": "block_8_project_BN", "class_name": "BatchNormalization", "config": {"name": "block_8_project_BN", "trainable": true, "dtype": "float32", "axis": [3], "momentum": 0.999, "epsilon": 0.001, "center": true, "scale": true, "beta_initializer": {"class_name": "Zeros", "config": {}}, "gamma_initializer": {"class_name": "Ones", "config": {}}, "moving_mean_initializer": {"class_name": "Zeros", "config": {}}, "moving_variance_initializer": {"class_name": "Ones", "config": {}}, "beta_regularizer": null, "gamma_regularizer": null, "beta_constraint": null, "gamma_constraint": null}, "inbound_nodes": [[["block_8_project", 0, 0, {}]]]}, {"name": "block_8_add", "class_name": "Add", "config": {"name": "block_8_add", "trainable": true, "dtype": "float32"}, "inbound_nodes": [[["block_7_add", 0, 0, {}], ["block_8_project_BN", 0, 0, {}]]]}, {"name": "block_9_expand", "class_name": "Conv2D", "config": {"name": "block_9_expand", "trainable": true, "dtype": "float32", "filters": 384, "kernel_size": [1, 1], "strides": [1, 1], "padding": "same", "data_format": "channels_last", "dilation_rate": [1, 1], "activation": "linear", "use_bias": false, "kernel_initializer": {"class_name": "GlorotUniform", "config": {"seed": null}}, "bias_initializer": {"class_name": "Zeros", "config": {}}, "kernel_regularizer": null, "bias_regularizer": null, "activity_regularizer": null, "kernel_constraint": null, "bias_constraint": null}, "inbound_nodes": [[["block_8_add", 0, 0, {}]]]}, {"name": "block_9_expand_BN", "class_name": "BatchNormalization", "config": {"name": "block_9_expand_BN", "trainable": true, "dtype": "float32", "axis": [3], "momentum": 0.999, "epsilon": 0.001, "center": true, "scale": true, "beta_initializer": {"class_name": "Zeros", "config": {}}, "gamma_initializer": {"class_name": "Ones", "config": {}}, "moving_mean_initializer": {"class_name": "Zeros", "config": {}}, "moving_variance_initializer": {"class_name": "Ones", "config": {}}, "beta_regularizer": null, "gamma_regularizer": null, "beta_constraint": null, "gamma_constraint": null}, "inbound_nodes": [[["block_9_expand", 0, 0, {}]]]}, {"name": "block_9_expand_relu", "class_name": "ReLU", "config": {"name": "block_9_expand_relu", "trainable": true, "dtype": "float32", "max_value": 6.0, "negative_slope": 0.0, "threshold": 0.0}, "inbound_nodes": [[["block_9_expand_BN", 0, 0, {}]]]}, {"name": "block_9_depthwise", "class_name": "DepthwiseConv2D", "config": {"name": "block_9_depthwise", "trainable": true, "dtype": "float32", "kernel_size": [3, 3], "strides": [1, 1], "padding": "same", "data_format": "channels_last", "dilation_rate": [1, 1], "activation": "linear", "use_bias": false, "bias_initializer": {"class_name": "Zeros", "config": {}}, "bias_regularizer": null, "activity_regularizer": null, "bias_constraint": null, "depth_multiplier": 1, "depthwise_initializer": {"class_name": "GlorotUniform", "config": {"seed": null}}, "depthwise_regularizer": null, "depthwise_constraint": null}, "inbound_nodes": [[["block_9_expand_relu", 0, 0, {}]]]}, {"name": "block_9_depthwise_BN", "class_name": "BatchNormalization", "config": {"name": "block_9_depthwise_BN", "trainable": true, "dtype": "float32", "axis": [3], "momentum": 0.999, "epsilon": 0.001, "center": true, "scale": true, "beta_initializer": {"class_name": "Zeros", "config": {}}, "gamma_initializer": {"class_name": "Ones", "config": {}}, "moving_mean_initializer": {"class_name": "Zeros", "config": {}}, "moving_variance_initializer": {"class_name": "Ones", "config": {}}, "beta_regularizer": null, "gamma_regularizer": null, "beta_constraint": null, "gamma_constraint": null}, "inbound_nodes": [[["block_9_depthwise", 0, 0, {}]]]}, {"name": "block_9_depthwise_relu", "class_name": "ReLU", "config": {"name": "block_9_depthwise_relu", "trainable": true, "dtype": "float32", "max_value": 6.0, "negative_slope": 0.0, "threshold": 0.0}, "inbound_nodes": [[["block_9_depthwise_BN", 0, 0, {}]]]}, {"name": "block_9_project", "class_name": "Conv2D", "config": {"name": "block_9_project", "trainable": true, "dtype": "float32", "filters": 64, "kernel_size": [1, 1], "strides": [1, 1], "padding": "same", "data_format": "channels_last", "dilation_rate": [1, 1], "activation": "linear", "use_bias": false, "kernel_initializer": {"class_name": "GlorotUniform", "config": {"seed": null}}, "bias_initializer": {"class_name": "Zeros", "config": {}}, "kernel_regularizer": null, "bias_regularizer": null, "activity_regularizer": null, "kernel_constraint": null, "bias_constraint": null}, "inbound_nodes": [[["block_9_depthwise_relu", 0, 0, {}]]]}, {"name": "block_9_project_BN", "class_name": "BatchNormalization", "config": {"name": "block_9_project_BN", "trainable": true, "dtype": "float32", "axis": [3], "momentum": 0.999, "epsilon": 0.001, "center": true, "scale": true, "beta_initializer": {"class_name": "Zeros", "config": {}}, "gamma_initializer": {"class_name": "Ones", "config": {}}, "moving_mean_initializer": {"class_name": "Zeros", "config": {}}, "moving_variance_initializer": {"class_name": "Ones", "config": {}}, "beta_regularizer": null, "gamma_regularizer": null, "beta_constraint": null, "gamma_constraint": null}, "inbound_nodes": [[["block_9_project", 0, 0, {}]]]}, {"name": "block_9_add", "class_name": "Add", "config": {"name": "block_9_add", "trainable": true, "dtype": "float32"}, "inbound_nodes": [[["block_8_add", 0, 0, {}], ["block_9_project_BN", 0, 0, {}]]]}, {"name": "block_10_expand", "class_name": "Conv2D", "config": {"name": "block_10_expand", "trainable": true, "dtype": "float32", "filters": 384, "kernel_size": [1, 1], "strides": [1, 1], "padding": "same", "data_format": "channels_last", "dilation_rate": [1, 1], "activation": "linear", "use_bias": false, "kernel_initializer": {"class_name": "GlorotUniform", "config": {"seed": null}}, "bias_initializer": {"class_name": "Zeros", "config": {}}, "kernel_regularizer": null, "bias_regularizer": null, "activity_regularizer": null, "kernel_constraint": null, "bias_constraint": null}, "inbound_nodes": [[["block_9_add", 0, 0, {}]]]}, {"name": "block_10_expand_BN", "class_name": "BatchNormalization", "config": {"name": "block_10_expand_BN", "trainable": true, "dtype": "float32", "axis": [3], "momentum": 0.999, "epsilon": 0.001, "center": true, "scale": true, "beta_initializer": {"class_name": "Zeros", "config": {}}, "gamma_initializer": {"class_name": "Ones", "config": {}}, "moving_mean_initializer": {"class_name": "Zeros", "config": {}}, "moving_variance_initializer": {"class_name": "Ones", "config": {}}, "beta_regularizer": null, "gamma_regularizer": null, "beta_constraint": null, "gamma_constraint": null}, "inbound_nodes": [[["block_10_expand", 0, 0, {}]]]}, {"name": "block_10_expand_relu", "class_name": "ReLU", "config": {"name": "block_10_expand_relu", "trainable": true, "dtype": "float32", "max_value": 6.0, "negative_slope": 0.0, "threshold": 0.0}, "inbound_nodes": [[["block_10_expand_BN", 0, 0, {}]]]}, {"name": "block_10_depthwise", "class_name": "DepthwiseConv2D", "config": {"name": "block_10_depthwise", "trainable": true, "dtype": "float32", "kernel_size": [3, 3], "strides": [1, 1], "padding": "same", "data_format": "channels_last", "dilation_rate": [1, 1], "activation": "linear", "use_bias": false, "bias_initializer": {"class_name": "Zeros", "config": {}}, "bias_regularizer": null, "activity_regularizer": null, "bias_constraint": null, "depth_multiplier": 1, "depthwise_initializer": {"class_name": "GlorotUniform", "config": {"seed": null}}, "depthwise_regularizer": null, "depthwise_constraint": null}, "inbound_nodes": [[["block_10_expand_relu", 0, 0, {}]]]}, {"name": "block_10_depthwise_BN", "class_name": "BatchNormalization", "config": {"name": "block_10_depthwise_BN", "trainable": true, "dtype": "float32", "axis": [3], "momentum": 0.999, "epsilon": 0.001, "center": true, "scale": true, "beta_initializer": {"class_name": "Zeros", "config": {}}, "gamma_initializer": {"class_name": "Ones", "config": {}}, "moving_mean_initializer": {"class_name": "Zeros", "config": {}}, "moving_variance_initializer": {"class_name": "Ones", "config": {}}, "beta_regularizer": null, "gamma_regularizer": null, "beta_constraint": null, "gamma_constraint": null}, "inbound_nodes": [[["block_10_depthwise", 0, 0, {}]]]}, {"name": "block_10_depthwise_relu", "class_name": "ReLU", "config": {"name": "block_10_depthwise_relu", "trainable": true, "dtype": "float32", "max_value": 6.0, "negative_slope": 0.0, "threshold": 0.0}, "inbound_nodes": [[["block_10_depthwise_BN", 0, 0, {}]]]}, {"name": "block_10_project", "class_name": "Conv2D", "config": {"name": "block_10_project", "trainable": true, "dtype": "float32", "filters": 96, "kernel_size": [1, 1], "strides": [1, 1], "padding": "same", "data_format": "channels_last", "dilation_rate": [1, 1], "activation": "linear", "use_bias": false, "kernel_initializer": {"class_name": "GlorotUniform", "config": {"seed": null}}, "bias_initializer": {"class_name": "Zeros", "config": {}}, "kernel_regularizer": null, "bias_regularizer": null, "activity_regularizer": null, "kernel_constraint": null, "bias_constraint": null}, "inbound_nodes": [[["block_10_depthwise_relu", 0, 0, {}]]]}, {"name": "block_10_project_BN", "class_name": "BatchNormalization", "config": {"name": "block_10_project_BN", "trainable": true, "dtype": "float32", "axis": [3], "momentum": 0.999, "epsilon": 0.001, "center": true, "scale": true, "beta_initializer": {"class_name": "Zeros", "config": {}}, "gamma_initializer": {"class_name": "Ones", "config": {}}, "moving_mean_initializer": {"class_name": "Zeros", "config": {}}, "moving_variance_initializer": {"class_name": "Ones", "config": {}}, "beta_regularizer": null, "gamma_regularizer": null, "beta_constraint": null, "gamma_constraint": null}, "inbound_nodes": [[["block_10_project", 0, 0, {}]]]}, {"name": "block_11_expand", "class_name": "Conv2D", "config": {"name": "block_11_expand", "trainable": true, "dtype": "float32", "filters": 576, "kernel_size": [1, 1], "strides": [1, 1], "padding": "same", "data_format": "channels_last", "dilation_rate": [1, 1], "activation": "linear", "use_bias": false, "kernel_initializer": {"class_name": "GlorotUniform", "config": {"seed": null}}, "bias_initializer": {"class_name": "Zeros", "config": {}}, "kernel_regularizer": null, "bias_regularizer": null, "activity_regularizer": null, "kernel_constraint": null, "bias_constraint": null}, "inbound_nodes": [[["block_10_project_BN", 0, 0, {}]]]}, {"name": "block_11_expand_BN", "class_name": "BatchNormalization", "config": {"name": "block_11_expand_BN", "trainable": true, "dtype": "float32", "axis": [3], "momentum": 0.999, "epsilon": 0.001, "center": true, "scale": true, "beta_initializer": {"class_name": "Zeros", "config": {}}, "gamma_initializer": {"class_name": "Ones", "config": {}}, "moving_mean_initializer": {"class_name": "Zeros", "config": {}}, "moving_variance_initializer": {"class_name": "Ones", "config": {}}, "beta_regularizer": null, "gamma_regularizer": null, "beta_constraint": null, "gamma_constraint": null}, "inbound_nodes": [[["block_11_expand", 0, 0, {}]]]}, {"name": "block_11_expand_relu", "class_name": "ReLU", "config": {"name": "block_11_expand_relu", "trainable": true, "dtype": "float32", "max_value": 6.0, "negative_slope": 0.0, "threshold": 0.0}, "inbound_nodes": [[["block_11_expand_BN", 0, 0, {}]]]}, {"name": "block_11_depthwise", "class_name": "DepthwiseConv2D", "config": {"name": "block_11_depthwise", "trainable": true, "dtype": "float32", "kernel_size": [3, 3], "strides": [1, 1], "padding": "same", "data_format": "channels_last", "dilation_rate": [1, 1], "activation": "linear", "use_bias": false, "bias_initializer": {"class_name": "Zeros", "config": {}}, "bias_regularizer": null, "activity_regularizer": null, "bias_constraint": null, "depth_multiplier": 1, "depthwise_initializer": {"class_name": "GlorotUniform", "config": {"seed": null}}, "depthwise_regularizer": null, "depthwise_constraint": null}, "inbound_nodes": [[["block_11_expand_relu", 0, 0, {}]]]}, {"name": "block_11_depthwise_BN", "class_name": "BatchNormalization", "config": {"name": "block_11_depthwise_BN", "trainable": true, "dtype": "float32", "axis": [3], "momentum": 0.999, "epsilon": 0.001, "center": true, "scale": true, "beta_initializer": {"class_name": "Zeros", "config": {}}, "gamma_initializer": {"class_name": "Ones", "config": {}}, "moving_mean_initializer": {"class_name": "Zeros", "config": {}}, "moving_variance_initializer": {"class_name": "Ones", "config": {}}, "beta_regularizer": null, "gamma_regularizer": null, "beta_constraint": null, "gamma_constraint": null}, "inbound_nodes": [[["block_11_depthwise", 0, 0, {}]]]}, {"name": "block_11_depthwise_relu", "class_name": "ReLU", "config": {"name": "block_11_depthwise_relu", "trainable": true, "dtype": "float32", "max_value": 6.0, "negative_slope": 0.0, "threshold": 0.0}, "inbound_nodes": [[["block_11_depthwise_BN", 0, 0, {}]]]}, {"name": "block_11_project", "class_name": "Conv2D", "config": {"name": "block_11_project", "trainable": true, "dtype": "float32", "filters": 96, "kernel_size": [1, 1], "strides": [1, 1], "padding": "same", "data_format": "channels_last", "dilation_rate": [1, 1], "activation": "linear", "use_bias": false, "kernel_initializer": {"class_name": "GlorotUniform", "config": {"seed": null}}, "bias_initializer": {"class_name": "Zeros", "config": {}}, "kernel_regularizer": null, "bias_regularizer": null, "activity_regularizer": null, "kernel_constraint": null, "bias_constraint": null}, "inbound_nodes": [[["block_11_depthwise_relu", 0, 0, {}]]]}, {"name": "block_11_project_BN", "class_name": "BatchNormalization", "config": {"name": "block_11_project_BN", "trainable": true, "dtype": "float32", "axis": [3], "momentum": 0.999, "epsilon": 0.001, "center": true, "scale": true, "beta_initializer": {"class_name": "Zeros", "config": {}}, "gamma_initializer": {"class_name": "Ones", "config": {}}, "moving_mean_initializer": {"class_name": "Zeros", "config": {}}, "moving_variance_initializer": {"class_name": "Ones", "config": {}}, "beta_regularizer": null, "gamma_regularizer": null, "beta_constraint": null, "gamma_constraint": null}, "inbound_nodes": [[["block_11_project", 0, 0, {}]]]}, {"name": "block_11_add", "class_name": "Add", "config": {"name": "block_11_add", "trainable": true, "dtype": "float32"}, "inbound_nodes": [[["block_10_project_BN", 0, 0, {}], ["block_11_project_BN", 0, 0, {}]]]}, {"name": "block_12_expand", "class_name": "Conv2D", "config": {"name": "block_12_expand", "trainable": true, "dtype": "float32", "filters": 576, "kernel_size": [1, 1], "strides": [1, 1], "padding": "same", "data_format": "channels_last", "dilation_rate": [1, 1], "activation": "linear", "use_bias": false, "kernel_initializer": {"class_name": "GlorotUniform", "config": {"seed": null}}, "bias_initializer": {"class_name": "Zeros", "config": {}}, "kernel_regularizer": null, "bias_regularizer": null, "activity_regularizer": null, "kernel_constraint": null, "bias_constraint": null}, "inbound_nodes": [[["block_11_add", 0, 0, {}]]]}, {"name": "block_12_expand_BN", "class_name": "BatchNormalization", "config": {"name": "block_12_expand_BN", "trainable": true, "dtype": "float32", "axis": [3], "momentum": 0.999, "epsilon": 0.001, "center": true, "scale": true, "beta_initializer": {"class_name": "Zeros", "config": {}}, "gamma_initializer": {"class_name": "Ones", "config": {}}, "moving_mean_initializer": {"class_name": "Zeros", "config": {}}, "moving_variance_initializer": {"class_name": "Ones", "config": {}}, "beta_regularizer": null, "gamma_regularizer": null, "beta_constraint": null, "gamma_constraint": null}, "inbound_nodes": [[["block_12_expand", 0, 0, {}]]]}, {"name": "block_12_expand_relu", "class_name": "ReLU", "config": {"name": "block_12_expand_relu", "trainable": true, "dtype": "float32", "max_value": 6.0, "negative_slope": 0.0, "threshold": 0.0}, "inbound_nodes": [[["block_12_expand_BN", 0, 0, {}]]]}, {"name": "block_12_depthwise", "class_name": "DepthwiseConv2D", "config": {"name": "block_12_depthwise", "trainable": true, "dtype": "float32", "kernel_size": [3, 3], "strides": [1, 1], "padding": "same", "data_format": "channels_last", "dilation_rate": [1, 1], "activation": "linear", "use_bias": false, "bias_initializer": {"class_name": "Zeros", "config": {}}, "bias_regularizer": null, "activity_regularizer": null, "bias_constraint": null, "depth_multiplier": 1, "depthwise_initializer": {"class_name": "GlorotUniform", "config": {"seed": null}}, "depthwise_regularizer": null, "depthwise_constraint": null}, "inbound_nodes": [[["block_12_expand_relu", 0, 0, {}]]]}, {"name": "block_12_depthwise_BN", "class_name": "BatchNormalization", "config": {"name": "block_12_depthwise_BN", "trainable": true, "dtype": "float32", "axis": [3], "momentum": 0.999, "epsilon": 0.001, "center": true, "scale": true, "beta_initializer": {"class_name": "Zeros", "config": {}}, "gamma_initializer": {"class_name": "Ones", "config": {}}, "moving_mean_initializer": {"class_name": "Zeros", "config": {}}, "moving_variance_initializer": {"class_name": "Ones", "config": {}}, "beta_regularizer": null, "gamma_regularizer": null, "beta_constraint": null, "gamma_constraint": null}, "inbound_nodes": [[["block_12_depthwise", 0, 0, {}]]]}, {"name": "block_12_depthwise_relu", "class_name": "ReLU", "config": {"name": "block_12_depthwise_relu", "trainable": true, "dtype": "float32", "max_value": 6.0, "negative_slope": 0.0, "threshold": 0.0}, "inbound_nodes": [[["block_12_depthwise_BN", 0, 0, {}]]]}, {"name": "block_12_project", "class_name": "Conv2D", "config": {"name": "block_12_project", "trainable": true, "dtype": "float32", "filters": 96, "kernel_size": [1, 1], "strides": [1, 1], "padding": "same", "data_format": "channels_last", "dilation_rate": [1, 1], "activation": "linear", "use_bias": false, "kernel_initializer": {"class_name": "GlorotUniform", "config": {"seed": null}}, "bias_initializer": {"class_name": "Zeros", "config": {}}, "kernel_regularizer": null, "bias_regularizer": null, "activity_regularizer": null, "kernel_constraint": null, "bias_constraint": null}, "inbound_nodes": [[["block_12_depthwise_relu", 0, 0, {}]]]}, {"name": "block_12_project_BN", "class_name": "BatchNormalization", "config": {"name": "block_12_project_BN", "trainable": true, "dtype": "float32", "axis": [3], "momentum": 0.999, "epsilon": 0.001, "center": true, "scale": true, "beta_initializer": {"class_name": "Zeros", "config": {}}, "gamma_initializer": {"class_name": "Ones", "config": {}}, "moving_mean_initializer": {"class_name": "Zeros", "config": {}}, "moving_variance_initializer": {"class_name": "Ones", "config": {}}, "beta_regularizer": null, "gamma_regularizer": null, "beta_constraint": null, "gamma_constraint": null}, "inbound_nodes": [[["block_12_project", 0, 0, {}]]]}, {"name": "block_12_add", "class_name": "Add", "config": {"name": "block_12_add", "trainable": true, "dtype": "float32"}, "inbound_nodes": [[["block_11_add", 0, 0, {}], ["block_12_project_BN", 0, 0, {}]]]}, {"name": "block_13_expand", "class_name": "Conv2D", "config": {"name": "block_13_expand", "trainable": true, "dtype": "float32", "filters": 576, "kernel_size": [1, 1], "strides": [1, 1], "padding": "same", "data_format": "channels_last", "dilation_rate": [1, 1], "activation": "linear", "use_bias": false, "kernel_initializer": {"class_name": "GlorotUniform", "config": {"seed": null}}, "bias_initializer": {"class_name": "Zeros", "config": {}}, "kernel_regularizer": null, "bias_regularizer": null, "activity_regularizer": null, "kernel_constraint": null, "bias_constraint": null}, "inbound_nodes": [[["block_12_add", 0, 0, {}]]]}, {"name": "block_13_expand_BN", "class_name": "BatchNormalization", "config": {"name": "block_13_expand_BN", "trainable": true, "dtype": "float32", "axis": [3], "momentum": 0.999, "epsilon": 0.001, "center": true, "scale": true, "beta_initializer": {"class_name": "Zeros", "config": {}}, "gamma_initializer": {"class_name": "Ones", "config": {}}, "moving_mean_initializer": {"class_name": "Zeros", "config": {}}, "moving_variance_initializer": {"class_name": "Ones", "config": {}}, "beta_regularizer": null, "gamma_regularizer": null, "beta_constraint": null, "gamma_constraint": null}, "inbound_nodes": [[["block_13_expand", 0, 0, {}]]]}, {"name": "block_13_expand_relu", "class_name": "ReLU", "config": {"name": "block_13_expand_relu", "trainable": true, "dtype": "float32", "max_value": 6.0, "negative_slope": 0.0, "threshold": 0.0}, "inbound_nodes": [[["block_13_expand_BN", 0, 0, {}]]]}, {"name": "block_13_pad", "class_name": "ZeroPadding2D", "config": {"name": "block_13_pad", "trainable": true, "dtype": "float32", "padding": [[0, 1], [0, 1]], "data_format": "channels_last"}, "inbound_nodes": [[["block_13_expand_relu", 0, 0, {}]]]}, {"name": "block_13_depthwise", "class_name": "DepthwiseConv2D", "config": {"name": "block_13_depthwise", "trainable": true, "dtype": "float32", "kernel_size": [3, 3], "strides": [2, 2], "padding": "valid", "data_format": "channels_last", "dilation_rate": [1, 1], "activation": "linear", "use_bias": false, "bias_initializer": {"class_name": "Zeros", "config": {}}, "bias_regularizer": null, "activity_regularizer": null, "bias_constraint": null, "depth_multiplier": 1, "depthwise_initializer": {"class_name": "GlorotUniform", "config": {"seed": null}}, "depthwise_regularizer": null, "depthwise_constraint": null}, "inbound_nodes": [[["block_13_pad", 0, 0, {}]]]}, {"name": "block_13_depthwise_BN", "class_name": "BatchNormalization", "config": {"name": "block_13_depthwise_BN", "trainable": true, "dtype": "float32", "axis": [3], "momentum": 0.999, "epsilon": 0.001, "center": true, "scale": true, "beta_initializer": {"class_name": "Zeros", "config": {}}, "gamma_initializer": {"class_name": "Ones", "config": {}}, "moving_mean_initializer": {"class_name": "Zeros", "config": {}}, "moving_variance_initializer": {"class_name": "Ones", "config": {}}, "beta_regularizer": null, "gamma_regularizer": null, "beta_constraint": null, "gamma_constraint": null}, "inbound_nodes": [[["block_13_depthwise", 0, 0, {}]]]}, {"name": "block_13_depthwise_relu", "class_name": "ReLU", "config": {"name": "block_13_depthwise_relu", "trainable": true, "dtype": "float32", "max_value": 6.0, "negative_slope": 0.0, "threshold": 0.0}, "inbound_nodes": [[["block_13_depthwise_BN", 0, 0, {}]]]}, {"name": "block_13_project", "class_name": "Conv2D", "config": {"name": "block_13_project", "trainable": true, "dtype": "float32", "filters": 160, "kernel_size": [1, 1], "strides": [1, 1], "padding": "same", "data_format": "channels_last", "dilation_rate": [1, 1], "activation": "linear", "use_bias": false, "kernel_initializer": {"class_name": "GlorotUniform", "config": {"seed": null}}, "bias_initializer": {"class_name": "Zeros", "config": {}}, "kernel_regularizer": null, "bias_regularizer": null, "activity_regularizer": null, "kernel_constraint": null, "bias_constraint": null}, "inbound_nodes": [[["block_13_depthwise_relu", 0, 0, {}]]]}, {"name": "block_13_project_BN", "class_name": "BatchNormalization", "config": {"name": "block_13_project_BN", "trainable": true, "dtype": "float32", "axis": [3], "momentum": 0.999, "epsilon": 0.001, "center": true, "scale": true, "beta_initializer": {"class_name": "Zeros", "config": {}}, "gamma_initializer": {"class_name": "Ones", "config": {}}, "moving_mean_initializer": {"class_name": "Zeros", "config": {}}, "moving_variance_initializer": {"class_name": "Ones", "config": {}}, "beta_regularizer": null, "gamma_regularizer": null, "beta_constraint": null, "gamma_constraint": null}, "inbound_nodes": [[["block_13_project", 0, 0, {}]]]}, {"name": "block_14_expand", "class_name": "Conv2D", "config": {"name": "block_14_expand", "trainable": true, "dtype": "float32", "filters": 960, "kernel_size": [1, 1], "strides": [1, 1], "padding": "same", "data_format": "channels_last", "dilation_rate": [1, 1], "activation": "linear", "use_bias": false, "kernel_initializer": {"class_name": "GlorotUniform", "config": {"seed": null}}, "bias_initializer": {"class_name": "Zeros", "config": {}}, "kernel_regularizer": null, "bias_regularizer": null, "activity_regularizer": null, "kernel_constraint": null, "bias_constraint": null}, "inbound_nodes": [[["block_13_project_BN", 0, 0, {}]]]}, {"name": "block_14_expand_BN", "class_name": "BatchNormalization", "config": {"name": "block_14_expand_BN", "trainable": true, "dtype": "float32", "axis": [3], "momentum": 0.999, "epsilon": 0.001, "center": true, "scale": true, "beta_initializer": {"class_name": "Zeros", "config": {}}, "gamma_initializer": {"class_name": "Ones", "config": {}}, "moving_mean_initializer": {"class_name": "Zeros", "config": {}}, "moving_variance_initializer": {"class_name": "Ones", "config": {}}, "beta_regularizer": null, "gamma_regularizer": null, "beta_constraint": null, "gamma_constraint": null}, "inbound_nodes": [[["block_14_expand", 0, 0, {}]]]}, {"name": "block_14_expand_relu", "class_name": "ReLU", "config": {"name": "block_14_expand_relu", "trainable": true, "dtype": "float32", "max_value": 6.0, "negative_slope": 0.0, "threshold": 0.0}, "inbound_nodes": [[["block_14_expand_BN", 0, 0, {}]]]}, {"name": "block_14_depthwise", "class_name": "DepthwiseConv2D", "config": {"name": "block_14_depthwise", "trainable": true, "dtype": "float32", "kernel_size": [3, 3], "strides": [1, 1], "padding": "same", "data_format": "channels_last", "dilation_rate": [1, 1], "activation": "linear", "use_bias": false, "bias_initializer": {"class_name": "Zeros", "config": {}}, "bias_regularizer": null, "activity_regularizer": null, "bias_constraint": null, "depth_multiplier": 1, "depthwise_initializer": {"class_name": "GlorotUniform", "config": {"seed": null}}, "depthwise_regularizer": null, "depthwise_constraint": null}, "inbound_nodes": [[["block_14_expand_relu", 0, 0, {}]]]}, {"name": "block_14_depthwise_BN", "class_name": "BatchNormalization", "config": {"name": "block_14_depthwise_BN", "trainable": true, "dtype": "float32", "axis": [3], "momentum": 0.999, "epsilon": 0.001, "center": true, "scale": true, "beta_initializer": {"class_name": "Zeros", "config": {}}, "gamma_initializer": {"class_name": "Ones", "config": {}}, "moving_mean_initializer": {"class_name": "Zeros", "config": {}}, "moving_variance_initializer": {"class_name": "Ones", "config": {}}, "beta_regularizer": null, "gamma_regularizer": null, "beta_constraint": null, "gamma_constraint": null}, "inbound_nodes": [[["block_14_depthwise", 0, 0, {}]]]}, {"name": "block_14_depthwise_relu", "class_name": "ReLU", "config": {"name": "block_14_depthwise_relu", "trainable": true, "dtype": "float32", "max_value": 6.0, "negative_slope": 0.0, "threshold": 0.0}, "inbound_nodes": [[["block_14_depthwise_BN", 0, 0, {}]]]}, {"name": "block_14_project", "class_name": "Conv2D", "config": {"name": "block_14_project", "trainable": true, "dtype": "float32", "filters": 160, "kernel_size": [1, 1], "strides": [1, 1], "padding": "same", "data_format": "channels_last", "dilation_rate": [1, 1], "activation": "linear", "use_bias": false, "kernel_initializer": {"class_name": "GlorotUniform", "config": {"seed": null}}, "bias_initializer": {"class_name": "Zeros", "config": {}}, "kernel_regularizer": null, "bias_regularizer": null, "activity_regularizer": null, "kernel_constraint": null, "bias_constraint": null}, "inbound_nodes": [[["block_14_depthwise_relu", 0, 0, {}]]]}, {"name": "block_14_project_BN", "class_name": "BatchNormalization", "config": {"name": "block_14_project_BN", "trainable": true, "dtype": "float32", "axis": [3], "momentum": 0.999, "epsilon": 0.001, "center": true, "scale": true, "beta_initializer": {"class_name": "Zeros", "config": {}}, "gamma_initializer": {"class_name": "Ones", "config": {}}, "moving_mean_initializer": {"class_name": "Zeros", "config": {}}, "moving_variance_initializer": {"class_name": "Ones", "config": {}}, "beta_regularizer": null, "gamma_regularizer": null, "beta_constraint": null, "gamma_constraint": null}, "inbound_nodes": [[["block_14_project", 0, 0, {}]]]}, {"name": "block_14_add", "class_name": "Add", "config": {"name": "block_14_add", "trainable": true, "dtype": "float32"}, "inbound_nodes": [[["block_13_project_BN", 0, 0, {}], ["block_14_project_BN", 0, 0, {}]]]}, {"name": "block_15_expand", "class_name": "Conv2D", "config": {"name": "block_15_expand", "trainable": true, "dtype": "float32", "filters": 960, "kernel_size": [1, 1], "strides": [1, 1], "padding": "same", "data_format": "channels_last", "dilation_rate": [1, 1], "activation": "linear", "use_bias": false, "kernel_initializer": {"class_name": "GlorotUniform", "config": {"seed": null}}, "bias_initializer": {"class_name": "Zeros", "config": {}}, "kernel_regularizer": null, "bias_regularizer": null, "activity_regularizer": null, "kernel_constraint": null, "bias_constraint": null}, "inbound_nodes": [[["block_14_add", 0, 0, {}]]]}, {"name": "block_15_expand_BN", "class_name": "BatchNormalization", "config": {"name": "block_15_expand_BN", "trainable": true, "dtype": "float32", "axis": [3], "momentum": 0.999, "epsilon": 0.001, "center": true, "scale": true, "beta_initializer": {"class_name": "Zeros", "config": {}}, "gamma_initializer": {"class_name": "Ones", "config": {}}, "moving_mean_initializer": {"class_name": "Zeros", "config": {}}, "moving_variance_initializer": {"class_name": "Ones", "config": {}}, "beta_regularizer": null, "gamma_regularizer": null, "beta_constraint": null, "gamma_constraint": null}, "inbound_nodes": [[["block_15_expand", 0, 0, {}]]]}, {"name": "block_15_expand_relu", "class_name": "ReLU", "config": {"name": "block_15_expand_relu", "trainable": true, "dtype": "float32", "max_value": 6.0, "negative_slope": 0.0, "threshold": 0.0}, "inbound_nodes": [[["block_15_expand_BN", 0, 0, {}]]]}, {"name": "block_15_depthwise", "class_name": "DepthwiseConv2D", "config": {"name": "block_15_depthwise", "trainable": true, "dtype": "float32", "kernel_size": [3, 3], "strides": [1, 1], "padding": "same", "data_format": "channels_last", "dilation_rate": [1, 1], "activation": "linear", "use_bias": false, "bias_initializer": {"class_name": "Zeros", "config": {}}, "bias_regularizer": null, "activity_regularizer": null, "bias_constraint": null, "depth_multiplier": 1, "depthwise_initializer": {"class_name": "GlorotUniform", "config": {"seed": null}}, "depthwise_regularizer": null, "depthwise_constraint": null}, "inbound_nodes": [[["block_15_expand_relu", 0, 0, {}]]]}, {"name": "block_15_depthwise_BN", "class_name": "BatchNormalization", "config": {"name": "block_15_depthwise_BN", "trainable": true, "dtype": "float32", "axis": [3], "momentum": 0.999, "epsilon": 0.001, "center": true, "scale": true, "beta_initializer": {"class_name": "Zeros", "config": {}}, "gamma_initializer": {"class_name": "Ones", "config": {}}, "moving_mean_initializer": {"class_name": "Zeros", "config": {}}, "moving_variance_initializer": {"class_name": "Ones", "config": {}}, "beta_regularizer": null, "gamma_regularizer": null, "beta_constraint": null, "gamma_constraint": null}, "inbound_nodes": [[["block_15_depthwise", 0, 0, {}]]]}, {"name": "block_15_depthwise_relu", "class_name": "ReLU", "config": {"name": "block_15_depthwise_relu", "trainable": true, "dtype": "float32", "max_value": 6.0, "negative_slope": 0.0, "threshold": 0.0}, "inbound_nodes": [[["block_15_depthwise_BN", 0, 0, {}]]]}, {"name": "block_15_project", "class_name": "Conv2D", "config": {"name": "block_15_project", "trainable": true, "dtype": "float32", "filters": 160, "kernel_size": [1, 1], "strides": [1, 1], "padding": "same", "data_format": "channels_last", "dilation_rate": [1, 1], "activation": "linear", "use_bias": false, "kernel_initializer": {"class_name": "GlorotUniform", "config": {"seed": null}}, "bias_initializer": {"class_name": "Zeros", "config": {}}, "kernel_regularizer": null, "bias_regularizer": null, "activity_regularizer": null, "kernel_constraint": null, "bias_constraint": null}, "inbound_nodes": [[["block_15_depthwise_relu", 0, 0, {}]]]}, {"name": "block_15_project_BN", "class_name": "BatchNormalization", "config": {"name": "block_15_project_BN", "trainable": true, "dtype": "float32", "axis": [3], "momentum": 0.999, "epsilon": 0.001, "center": true, "scale": true, "beta_initializer": {"class_name": "Zeros", "config": {}}, "gamma_initializer": {"class_name": "Ones", "config": {}}, "moving_mean_initializer": {"class_name": "Zeros", "config": {}}, "moving_variance_initializer": {"class_name": "Ones", "config": {}}, "beta_regularizer": null, "gamma_regularizer": null, "beta_constraint": null, "gamma_constraint": null}, "inbound_nodes": [[["block_15_project", 0, 0, {}]]]}, {"name": "block_15_add", "class_name": "Add", "config": {"name": "block_15_add", "trainable": true, "dtype": "float32"}, "inbound_nodes": [[["block_14_add", 0, 0, {}], ["block_15_project_BN", 0, 0, {}]]]}, {"name": "block_16_expand", "class_name": "Conv2D", "config": {"name": "block_16_expand", "trainable": true, "dtype": "float32", "filters": 960, "kernel_size": [1, 1], "strides": [1, 1], "padding": "same", "data_format": "channels_last", "dilation_rate": [1, 1], "activation": "linear", "use_bias": false, "kernel_initializer": {"class_name": "GlorotUniform", "config": {"seed": null}}, "bias_initializer": {"class_name": "Zeros", "config": {}}, "kernel_regularizer": null, "bias_regularizer": null, "activity_regularizer": null, "kernel_constraint": null, "bias_constraint": null}, "inbound_nodes": [[["block_15_add", 0, 0, {}]]]}, {"name": "block_16_expand_BN", "class_name": "BatchNormalization", "config": {"name": "block_16_expand_BN", "trainable": true, "dtype": "float32", "axis": [3], "momentum": 0.999, "epsilon": 0.001, "center": true, "scale": true, "beta_initializer": {"class_name": "Zeros", "config": {}}, "gamma_initializer": {"class_name": "Ones", "config": {}}, "moving_mean_initializer": {"class_name": "Zeros", "config": {}}, "moving_variance_initializer": {"class_name": "Ones", "config": {}}, "beta_regularizer": null, "gamma_regularizer": null, "beta_constraint": null, "gamma_constraint": null}, "inbound_nodes": [[["block_16_expand", 0, 0, {}]]]}, {"name": "block_16_expand_relu", "class_name": "ReLU", "config": {"name": "block_16_expand_relu", "trainable": true, "dtype": "float32", "max_value": 6.0, "negative_slope": 0.0, "threshold": 0.0}, "inbound_nodes": [[["block_16_expand_BN", 0, 0, {}]]]}, {"name": "block_16_depthwise", "class_name": "DepthwiseConv2D", "config": {"name": "block_16_depthwise", "trainable": true, "dtype": "float32", "kernel_size": [3, 3], "strides": [1, 1], "padding": "same", "data_format": "channels_last", "dilation_rate": [1, 1], "activation": "linear", "use_bias": false, "bias_initializer": {"class_name": "Zeros", "config": {}}, "bias_regularizer": null, "activity_regularizer": null, "bias_constraint": null, "depth_multiplier": 1, "depthwise_initializer": {"class_name": "GlorotUniform", "config": {"seed": null}}, "depthwise_regularizer": null, "depthwise_constraint": null}, "inbound_nodes": [[["block_16_expand_relu", 0, 0, {}]]]}, {"name": "block_16_depthwise_BN", "class_name": "BatchNormalization", "config": {"name": "block_16_depthwise_BN", "trainable": true, "dtype": "float32", "axis": [3], "momentum": 0.999, "epsilon": 0.001, "center": true, "scale": true, "beta_initializer": {"class_name": "Zeros", "config": {}}, "gamma_initializer": {"class_name": "Ones", "config": {}}, "moving_mean_initializer": {"class_name": "Zeros", "config": {}}, "moving_variance_initializer": {"class_name": "Ones", "config": {}}, "beta_regularizer": null, "gamma_regularizer": null, "beta_constraint": null, "gamma_constraint": null}, "inbound_nodes": [[["block_16_depthwise", 0, 0, {}]]]}, {"name": "block_16_depthwise_relu", "class_name": "ReLU", "config": {"name": "block_16_depthwise_relu", "trainable": true, "dtype": "float32", "max_value": 6.0, "negative_slope": 0.0, "threshold": 0.0}, "inbound_nodes": [[["block_16_depthwise_BN", 0, 0, {}]]]}, {"name": "block_16_project", "class_name": "Conv2D", "config": {"name": "block_16_project", "trainable": true, "dtype": "float32", "filters": 320, "kernel_size": [1, 1], "strides": [1, 1], "padding": "same", "data_format": "channels_last", "dilation_rate": [1, 1], "activation": "linear", "use_bias": false, "kernel_initializer": {"class_name": "GlorotUniform", "config": {"seed": null}}, "bias_initializer": {"class_name": "Zeros", "config": {}}, "kernel_regularizer": null, "bias_regularizer": null, "activity_regularizer": null, "kernel_constraint": null, "bias_constraint": null}, "inbound_nodes": [[["block_16_depthwise_relu", 0, 0, {}]]]}, {"name": "block_16_project_BN", "class_name": "BatchNormalization", "config": {"name": "block_16_project_BN", "trainable": true, "dtype": "float32", "axis": [3], "momentum": 0.999, "epsilon": 0.001, "center": true, "scale": true, "beta_initializer": {"class_name": "Zeros", "config": {}}, "gamma_initializer": {"class_name": "Ones", "config": {}}, "moving_mean_initializer": {"class_name": "Zeros", "config": {}}, "moving_variance_initializer": {"class_name": "Ones", "config": {}}, "beta_regularizer": null, "gamma_regularizer": null, "beta_constraint": null, "gamma_constraint": null}, "inbound_nodes": [[["block_16_project", 0, 0, {}]]]}, {"name": "Conv_1", "class_name": "Conv2D", "config": {"name": "Conv_1", "trainable": true, "dtype": "float32", "filters": 1280, "kernel_size": [1, 1], "strides": [1, 1], "padding": "valid", "data_format": "channels_last", "dilation_rate": [1, 1], "activation": "linear", "use_bias": false, "kernel_initializer": {"class_name": "GlorotUniform", "config": {"seed": null}}, "bias_initializer": {"class_name": "Zeros", "config": {}}, "kernel_regularizer": null, "bias_regularizer": null, "activity_regularizer": null, "kernel_constraint": null, "bias_constraint": null}, "inbound_nodes": [[["block_16_project_BN", 0, 0, {}]]]}, {"name": "Conv_1_bn", "class_name": "BatchNormalization", "config": {"name": "Conv_1_bn", "trainable": true, "dtype": "float32", "axis": [3], "momentum": 0.999, "epsilon": 0.001, "center": true, "scale": true, "beta_initializer": {"class_name": "Zeros", "config": {}}, "gamma_initializer": {"class_name": "Ones", "config": {}}, "moving_mean_initializer": {"class_name": "Zeros", "config": {}}, "moving_variance_initializer": {"class_name": "Ones", "config": {}}, "beta_regularizer": null, "gamma_regularizer": null, "beta_constraint": null, "gamma_constraint": null}, "inbound_nodes": [[["Conv_1", 0, 0, {}]]]}, {"name": "out_relu", "class_name": "ReLU", "config": {"name": "out_relu", "trainable": true, "dtype": "float32", "max_value": 6.0, "negative_slope": 0.0, "threshold": 0.0}, "inbound_nodes": [[["Conv_1_bn", 0, 0, {}]]]}], "input_layers": [["input_1", 0, 0]], "output_layers": [["out_relu", 0, 0]]}}, {"class_name": "GlobalAveragePooling2D", "config": {"name": "global_average_pooling2d", "trainable": true, "dtype": "float32", "data_format": "channels_last"}}, {"class_name": "Dropout", "config": {"name": "dropout", "trainable": true, "dtype": "float32", "rate": 0.3, "noise_shape": null, "seed": null}}, {"class_name": "Dense", "config": {"name": "dense", "trainable": true, "dtype": "float32", "units": 1024, "activation": "relu", "use_bias": true, "kernel_initializer": {"class_name": "GlorotUniform", "config": {"seed": null}}, "bias_initializer": {"class_name": "VarianceScaling", "config": {"scale": 2.0, "mode": "fan_in", "distribution": "truncated_normal", "seed": null}}, "kernel_regularizer": null, "bias_regularizer": null, "activity_regularizer": null, "kernel_constraint": null, "bias_constraint": null}}, {"class_name": "Dropout", "config": {"name": "dropout_1", "trainable": true, "dtype": "float32", "rate": 0.2, "noise_shape": null, "seed": null}}, {"class_name": "Dense", "config": {"name": "dense_1", "trainable": true, "dtype": "float32", "units": 1024, "activation": "relu", "use_bias": true, "kernel_initializer": {"class_name": "GlorotUniform", "config": {"seed": null}}, "bias_initializer": {"class_name": "VarianceScaling", "config": {"scale": 2.0, "mode": "fan_in", "distribution": "truncated_normal", "seed": null}}, "kernel_regularizer": null, "bias_regularizer": null, "activity_regularizer": null, "kernel_constraint": null, "bias_constraint": null}}, {"class_name": "Dropout", "config": {"name": "dropout_2", "trainable": true, "dtype": "float32", "rate": 0.2, "noise_shape": null, "seed": null}}, {"class_name": "Dense", "config": {"name": "features", "trainable": true, "dtype": "float32", "units": 512, "activation": "relu", "use_bias": true, "kernel_initializer": {"class_name": "GlorotUniform", "config": {"seed": null}}, "bias_initializer": {"class_name": "VarianceScaling", "config": {"scale": 2.0, "mode": "fan_in", "distribution": "truncated_normal", "seed": null}}, "kernel_regularizer": null, "bias_regularizer": null, "activity_regularizer": null, "kernel_constraint": null, "bias_constraint": null}}, {"class_name": "Dense", "config": {"name": "dense_2", "trainable": true, "dtype": "float32", "units": 8, "activation": "softmax", "use_bias": true, "kernel_initializer": {"class_name": "GlorotUniform", "config": {"seed": null}}, "bias_initializer": {"class_name": "Zeros", "config": {}}, "kernel_regularizer": null, "bias_regularizer": null, "activity_regularizer": null, "kernel_constraint": null, "bias_constraint": null}}]}}, "training_config": {"optimizer_config": {"class_name": "Adam", "config": {"name": "Adam", "learning_rate": 3.000000106112566e-06, "decay": 1.0000000116860974e-07, "beta_1": 0.8999999761581421, "beta_2": 0.9990000128746033, "epsilon": 9.99999993922529e-09, "amsgrad": false}}, "loss": "sparse_categorical_crossentropy", "metrics": ["accuracy"], "weighted_metrics": null, "sample_weight_mode": null, "loss_weights": null}}, "weightsManifest": [{"paths": ["group1-shard1of3.bin", "group1-shard2of3.bin", "group1-shard3of3.bin"], "weights": [{"name": "dense/kernel", "shape": [1280, 1024], "dtype": "float32", "quantization": {"min": -0.06402720679650728, "scale": 2.0026024895692258e-06, "dtype": "uint16"}}, {"name": "dense/bias", "shape": [1024], "dtype": "float32", "quantization": {"min": -0.10132009787188703, "scale": 3.0981897034488282e-06, "dtype": "uint16"}}, {"name": "dense_1/kernel", "shape": [1024, 1024], "dtype": "float32", "quantization": {"min": -0.06820213740342376, "scale": 2.1176842018078545e-06, "dtype": "uint16"}}, {"name": "dense_1/bias", "shape": [1024], "dtype": "float32", "quantization": {"min": -0.09891648522920027, "scale": 3.0950089245682187e-06, "dtype": "uint16"}}, {"name": "dense_2/kernel", "shape": [512, 8], "dtype": "float32", "quantization": {"min": -0.11642933949808822, "scale": 3.506274152204066e-06, "dtype": "uint16"}}, {"name": "dense_2/bias", "shape": [8], "dtype": "float32", "quantization": {"min": -0.0014191281349409067, "scale": 4.7729059796889205e-08, "dtype": "uint16"}}, {"name": "features/kernel", "shape": [1024, 512], "dtype": "float32", "quantization": {"min": -0.07542326207452266, "scale": 2.298999057351256e-06, "dtype": "uint16"}}, {"name": "features/bias", "shape": [512], "dtype": "float32", "quantization": {"min": -0.13978969196123817, "scale": 4.218537947347019e-06, "dtype": "uint16"}}, {"name": "Conv1/kernel", "shape": [3, 3, 3, 32], "dtype": "float32", "quantization": {"min": -0.7746367443796608, "scale": 2.3140754126352824e-05, "dtype": "uint16"}}, {"name": "bn_Conv1/gamma", "shape": [32], "dtype": "float32", "quantization": {"min": 0.15859852731227875, "scale": 6.310421391665603e-05, "dtype": "uint16"}}, {"name": "bn_Conv1/beta", "shape": [32], "dtype": "float32", "quantization": {"min": -6.159494488734243, "scale": 0.00016663946348332773, "dtype": "uint16"}}, {"name": "expanded_conv_depthwise/depthwise_kernel", "shape": [3, 3, 32, 1], "dtype": "float32", "quantization": {"min": -25.6554508811687, "scale": 0.0007531322730417936, "dtype": "uint16"}}, {"name": "expanded_conv_depthwise_BN/gamma", "shape": [32], "dtype": "float32", "quantization": {"min": -0.09688715171311917, "scale": 2.8050709818505837e-05, "dtype": "uint16"}}, {"name": "expanded_conv_depthwise_BN/beta", "shape": [32], "dtype": "float32", "quantization": {"min": -1.3595451635254634, "scale": 7.29174129002662e-05, "dtype": "uint16"}}, {"name": "expanded_conv_project/kernel", "shape": [1, 1, 32, 16], "dtype": "float32", "quantization": {"min": -1.2866481708299742, "scale": 3.436101404272865e-05, "dtype": "uint16"}}, {"name": "expanded_conv_project_BN/gamma", "shape": [16], "dtype": "float32", "quantization": {"min": 2.6380186080932617, "scale": 3.834698450704493e-05, "dtype": "uint16"}}, {"name": "expanded_conv_project_BN/beta", "shape": [16], "dtype": "float32", "quantization": {"min": -0.03852954492407214, "scale": 1.735174281651526e-06, "dtype": "uint16"}}, {"name": "block_1_expand/kernel", "shape": [1, 1, 16, 96], "dtype": "float32", "quantization": {"min": -1.123439407105794, "scale": 2.714211802338175e-05, "dtype": "uint16"}}, {"name": "block_1_expand_BN/gamma", "shape": [96], "dtype": "float32", "quantization": {"min": 0.20610521733760834, "scale": 0.00014603628581636347, "dtype": "uint16"}}, {"name": "block_1_expand_BN/beta", "shape": [96], "dtype": "float32", "quantization": {"min": -2.242868336891249, "scale": 0.0001090305934029094, "dtype": "uint16"}}, {"name": "block_1_depthwise/depthwise_kernel", "shape": [3, 3, 96, 1], "dtype": "float32", "quantization": {"min": -3.0694715891839746, "scale": 9.88048538332574e-05, "dtype": "uint16"}}, {"name": "block_1_depthwise_BN/gamma", "shape": [96], "dtype": "float32", "quantization": {"min": 0.45361924171447754, "scale": 4.5218383673809574e-05, "dtype": "uint16"}}, {"name": "block_1_depthwise_BN/beta", "shape": [96], "dtype": "float32", "quantization": {"min": -4.142919168692755, "scale": 0.00013286678325559652, "dtype": "uint16"}}, {"name": "block_1_project/kernel", "shape": [1, 1, 96, 24], "dtype": "float32", "quantization": {"min": -1.2292410228493793, "scale": 2.8971035183817568e-05, "dtype": "uint16"}}, {"name": "block_1_project_BN/gamma", "shape": [24], "dtype": "float32", "quantization": {"min": 1.987229824066162, "scale": 5.07746552624291e-05, "dtype": "uint16"}}, {"name": "block_1_project_BN/beta", "shape": [24], "dtype": "float32", "quantization": {"min": -0.010130440400467273, "scale": 3.14083226901075e-07, "dtype": "uint16"}}, {"name": "block_2_expand/kernel", "shape": [1, 1, 24, 144], "dtype": "float32", "quantization": {"min": -0.4594419651217216, "scale": 1.5058240146888715e-05, "dtype": "uint16"}}, {"name": "block_2_expand_BN/gamma", "shape": [144], "dtype": "float32", "quantization": {"min": 0.18238355219364166, "scale": 6.385597141654702e-05, "dtype": "uint16"}}, {"name": "block_2_expand_BN/beta", "shape": [144], "dtype": "float32", "quantization": {"min": -2.5801252864214232, "scale": 0.00011167923154661401, "dtype": "uint16"}}, {"name": "block_2_depthwise/depthwise_kernel", "shape": [3, 3, 144, 1], "dtype": "float32", "quantization": {"min": -7.194231718352506, "scale": 0.00022848985956782397, "dtype": "uint16"}}, {"name": "block_2_depthwise_BN/gamma", "shape": [144], "dtype": "float32", "quantization": {"min": 0.4130599796772003, "scale": 3.219077877624726e-05, "dtype": "uint16"}}, {"name": "block_2_depthwise_BN/beta", "shape": [144], "dtype": "float32", "quantization": {"min": -3.2974001926588885, "scale": 0.00013340616549981343, "dtype": "uint16"}}, {"name": "block_2_project/kernel", "shape": [1, 1, 144, 24], "dtype": "float32", "quantization": {"min": -0.46568077425848675, "scale": 1.6136973257276552e-05, "dtype": "uint16"}}, {"name": "block_2_project_BN/gamma", "shape": [24], "dtype": "float32", "quantization": {"min": 1.445684790611267, "scale": 9.615535893247066e-05, "dtype": "uint16"}}, {"name": "block_2_project_BN/beta", "shape": [24], "dtype": "float32", "quantization": {"min": -0.006653058988010129, "scale": 2.2071655070862653e-07, "dtype": "uint16"}}, {"name": "block_3_expand/kernel", "shape": [1, 1, 24, 144], "dtype": "float32", "quantization": {"min": -0.9520526124018229, "scale": 2.7450914376386107e-05, "dtype": "uint16"}}, {"name": "block_3_expand_BN/gamma", "shape": [144], "dtype": "float32", "quantization": {"min": 0.28231608867645264, "scale": 5.454177977228052e-05, "dtype": "uint16"}}, {"name": "block_3_expand_BN/beta", "shape": [144], "dtype": "float32", "quantization": {"min": -2.363002822735112, "scale": 9.742734488064286e-05, "dtype": "uint16"}}, {"name": "block_3_depthwise/depthwise_kernel", "shape": [3, 3, 144, 1], "dtype": "float32", "quantization": {"min": -2.290070014721361, "scale": 6.998349829543016e-05, "dtype": "uint16"}}, {"name": "block_3_depthwise_BN/gamma", "shape": [144], "dtype": "float32", "quantization": {"min": 0.3297189772129059, "scale": 4.5326867583433385e-05, "dtype": "uint16"}}, {"name": "block_3_depthwise_BN/beta", "shape": [144], "dtype": "float32", "quantization": {"min": -2.825214367643359, "scale": 0.00012082343444568101, "dtype": "uint16"}}, {"name": "block_3_project/kernel", "shape": [1, 1, 144, 32], "dtype": "float32", "quantization": {"min": -0.6884719296524724, "scale": 2.473137185331103e-05, "dtype": "uint16"}}, {"name": "block_3_project_BN/gamma", "shape": [32], "dtype": "float32", "quantization": {"min": 2.4841768741607666, "scale": 6.476592042584927e-05, "dtype": "uint16"}}, {"name": "block_3_project_BN/beta", "shape": [32], "dtype": "float32", "quantization": {"min": -0.0059352508618756355, "scale": 2.2908066161857405e-07, "dtype": "uint16"}}, {"name": "block_4_expand/kernel", "shape": [1, 1, 32, 192], "dtype": "float32", "quantization": {"min": -0.40570686750902396, "scale": 1.1158668450107926e-05, "dtype": "uint16"}}, {"name": "block_4_expand_BN/gamma", "shape": [192], "dtype": "float32", "quantization": {"min": 0.13128715753555298, "scale": 2.987589708425601e-05, "dtype": "uint16"}}, {"name": "block_4_expand_BN/beta", "shape": [192], "dtype": "float32", "quantization": {"min": -2.599975710474691, "scale": 8.7517695922805e-05, "dtype": "uint16"}}, {"name": "block_4_depthwise/depthwise_kernel", "shape": [3, 3, 192, 1], "dtype": "float32", "quantization": {"min": -4.978873809291449, "scale": 0.0001446043916613357, "dtype": "uint16"}}, {"name": "block_4_depthwise_BN/gamma", "shape": [192], "dtype": "float32", "quantization": {"min": 0.40357619524002075, "scale": 3.6319397930477925e-05, "dtype": "uint16"}}, {"name": "block_4_depthwise_BN/beta", "shape": [192], "dtype": "float32", "quantization": {"min": -2.910402428568151, "scale": 9.34228622786939e-05, "dtype": "uint16"}}, {"name": "block_4_project/kernel", "shape": [1, 1, 192, 32], "dtype": "float32", "quantization": {"min": -0.4972036714947468, "scale": 1.3347032951109922e-05, "dtype": "uint16"}}, {"name": "block_4_project_BN/gamma", "shape": [32], "dtype": "float32", "quantization": {"min": 0.980901837348938, "scale": 7.729455572867398e-05, "dtype": "uint16"}}, {"name": "block_4_project_BN/beta", "shape": [32], "dtype": "float32", "quantization": {"min": -0.006199210984506605, "scale": 1.8923110453316864e-07, "dtype": "uint16"}}, {"name": "block_5_expand/kernel", "shape": [1, 1, 32, 192], "dtype": "float32", "quantization": {"min": -0.35226706914791867, "scale": 1.1362354260810846e-05, "dtype": "uint16"}}, {"name": "block_5_expand_BN/gamma", "shape": [192], "dtype": "float32", "quantization": {"min": 0.14196962118148804, "scale": 2.790669095391602e-05, "dtype": "uint16"}}, {"name": "block_5_expand_BN/beta", "shape": [192], "dtype": "float32", "quantization": {"min": -1.597851390979415, "scale": 7.448148934784948e-05, "dtype": "uint16"}}, {"name": "block_5_depthwise/depthwise_kernel", "shape": [3, 3, 192, 1], "dtype": "float32", "quantization": {"min": -4.54216625614971, "scale": 0.00012670626690888502, "dtype": "uint16"}}, {"name": "block_5_depthwise_BN/gamma", "shape": [192], "dtype": "float32", "quantization": {"min": 0.42900651693344116, "scale": 3.29767920072868e-05, "dtype": "uint16"}}, {"name": "block_5_depthwise_BN/beta", "shape": [192], "dtype": "float32", "quantization": {"min": -2.8879463391235984, "scale": 9.1088040975354e-05, "dtype": "uint16"}}, {"name": "block_5_project/kernel", "shape": [1, 1, 192, 32], "dtype": "float32", "quantization": {"min": -0.3561973342626657, "scale": 1.0896217016294455e-05, "dtype": "uint16"}}, {"name": "block_5_project_BN/gamma", "shape": [32], "dtype": "float32", "quantization": {"min": 0.9190607666969299, "scale": 7.338037368606773e-05, "dtype": "uint16"}}, {"name": "block_5_project_BN/beta", "shape": [32], "dtype": "float32", "quantization": {"min": -0.005508335634898057, "scale": 1.6974317077742004e-07, "dtype": "uint16"}}, {"name": "block_6_expand/kernel", "shape": [1, 1, 32, 192], "dtype": "float32", "quantization": {"min": -0.6438476044598529, "scale": 1.9945094775869796e-05, "dtype": "uint16"}}, {"name": "block_6_expand_BN/gamma", "shape": [192], "dtype": "float32", "quantization": {"min": 0.46150267124176025, "scale": 3.5841224704171114e-05, "dtype": "uint16"}}, {"name": "block_6_expand_BN/beta", "shape": [192], "dtype": "float32", "quantization": {"min": -1.8452626079391394, "scale": 5.9992932178267097e-05, "dtype": "uint16"}}, {"name": "block_6_depthwise/depthwise_kernel", "shape": [3, 3, 192, 1], "dtype": "float32", "quantization": {"min": -1.990996555784724, "scale": 6.457355936122739e-05, "dtype": "uint16"}}, {"name": "block_6_depthwise_BN/gamma", "shape": [192], "dtype": "float32", "quantization": {"min": 0.4202103614807129, "scale": 2.5652332965120022e-05, "dtype": "uint16"}}, {"name": "block_6_depthwise_BN/beta", "shape": [192], "dtype": "float32", "quantization": {"min": -1.4916366844944144, "scale": 0.00010167246162459372, "dtype": "uint16"}}, {"name": "block_6_project/kernel", "shape": [1, 1, 192, 64], "dtype": "float32", "quantization": {"min": -0.8964548226287603, "scale": 2.2571629132560184e-05, "dtype": "uint16"}}, {"name": "block_6_project_BN/gamma", "shape": [64], "dtype": "float32", "quantization": {"min": 0.8706840872764587, "scale": 8.295949449289615e-05, "dtype": "uint16"}}, {"name": "block_6_project_BN/beta", "shape": [64], "dtype": "float32", "quantization": {"min": -0.005787296866304718, "scale": 1.6979013836892235e-07, "dtype": "uint16"}}, {"name": "block_7_expand/kernel", "shape": [1, 1, 64, 384], "dtype": "float32", "quantization": {"min": -0.32601218698289786, "scale": 9.00064015302995e-06, "dtype": "uint16"}}, {"name": "block_7_expand_BN/gamma", "shape": [384], "dtype": "float32", "quantization": {"min": 0.12707029283046722, "scale": 2.2454484654862628e-05, "dtype": "uint16"}}, {"name": "block_7_expand_BN/beta", "shape": [384], "dtype": "float32", "quantization": {"min": -1.5260047342444918, "scale": 7.534709594847636e-05, "dtype": "uint16"}}, {"name": "block_7_depthwise/depthwise_kernel", "shape": [3, 3, 384, 1], "dtype": "float32", "quantization": {"min": -3.294505975629696, "scale": 8.935949809129044e-05, "dtype": "uint16"}}, {"name": "block_7_depthwise_BN/gamma", "shape": [384], "dtype": "float32", "quantization": {"min": 0.25402018427848816, "scale": 3.696027905842601e-05, "dtype": "uint16"}}, {"name": "block_7_depthwise_BN/beta", "shape": [384], "dtype": "float32", "quantization": {"min": -3.62341263433011, "scale": 8.23222227497469e-05, "dtype": "uint16"}}, {"name": "block_7_project/kernel", "shape": [1, 1, 384, 64], "dtype": "float32", "quantization": {"min": -0.5305589168888668, "scale": 1.5749663576123335e-05, "dtype": "uint16"}}, {"name": "block_7_project_BN/gamma", "shape": [64], "dtype": "float32", "quantization": {"min": 0.6178408265113831, "scale": 7.786422188007159e-05, "dtype": "uint16"}}, {"name": "block_7_project_BN/beta", "shape": [64], "dtype": "float32", "quantization": {"min": -0.004174563792940112, "scale": 1.3662904342934189e-07, "dtype": "uint16"}}, {"name": "block_8_expand/kernel", "shape": [1, 1, 64, 384], "dtype": "float32", "quantization": {"min": -0.49930289400890815, "scale": 1.3456485487371194e-05, "dtype": "uint16"}}, {"name": "block_8_expand_BN/gamma", "shape": [384], "dtype": "float32", "quantization": {"min": 0.08739016950130463, "scale": 2.2074501065319477e-05, "dtype": "uint16"}}, {"name": "block_8_expand_BN/beta", "shape": [384], "dtype": "float32", "quantization": {"min": -1.4661967237035534, "scale": 5.632718877078576e-05, "dtype": "uint16"}}, {"name": "block_8_depthwise/depthwise_kernel", "shape": [3, 3, 384, 1], "dtype": "float32", "quantization": {"min": -3.412318863602773, "scale": 0.0001048170438827453, "dtype": "uint16"}}, {"name": "block_8_depthwise_BN/gamma", "shape": [384], "dtype": "float32", "quantization": {"min": 0.3307301700115204, "scale": 6.249910535279041e-05, "dtype": "uint16"}}, {"name": "block_8_depthwise_BN/beta", "shape": [384], "dtype": "float32", "quantization": {"min": -6.177080139895912, "scale": 0.0001274570844316588, "dtype": "uint16"}}, {"name": "block_8_project/kernel", "shape": [1, 1, 384, 64], "dtype": "float32", "quantization": {"min": -0.28547212666356336, "scale": 8.774308488199274e-06, "dtype": "uint16"}}, {"name": "block_8_project_BN/gamma", "shape": [64], "dtype": "float32", "quantization": {"min": 0.6633867025375366, "scale": 4.910308217678534e-05, "dtype": "uint16"}}, {"name": "block_8_project_BN/beta", "shape": [64], "dtype": "float32", "quantization": {"min": -0.004901947595274011, "scale": 1.413561219007443e-07, "dtype": "uint16"}}, {"name": "block_9_expand/kernel", "shape": [1, 1, 64, 384], "dtype": "float32", "quantization": {"min": -0.3164984294130717, "scale": 1.1765740870374413e-05, "dtype": "uint16"}}, {"name": "block_9_expand_BN/gamma", "shape": [384], "dtype": "float32", "quantization": {"min": 0.2205083966255188, "scale": 2.755137505607346e-05, "dtype": "uint16"}}, {"name": "block_9_expand_BN/beta", "shape": [384], "dtype": "float32", "quantization": {"min": -1.384866849941566, "scale": 4.630267979342559e-05, "dtype": "uint16"}}, {"name": "block_9_depthwise/depthwise_kernel", "shape": [3, 3, 384, 1], "dtype": "float32", "quantization": {"min": -2.8259563195602637, "scale": 7.700782951086638e-05, "dtype": "uint16"}}, {"name": "block_9_depthwise_BN/gamma", "shape": [384], "dtype": "float32", "quantization": {"min": 0.3733922243118286, "scale": 3.0091340567123938e-05, "dtype": "uint16"}}, {"name": "block_9_depthwise_BN/beta", "shape": [384], "dtype": "float32", "quantization": {"min": -4.163019632731076, "scale": 9.7702824115353e-05, "dtype": "uint16"}}, {"name": "block_9_project/kernel", "shape": [1, 1, 384, 64], "dtype": "float32", "quantization": {"min": -0.499664610276881, "scale": 1.2770327658059167e-05, "dtype": "uint16"}}, {"name": "block_9_project_BN/gamma", "shape": [64], "dtype": "float32", "quantization": {"min": 0.6959004998207092, "scale": 4.706897442370137e-05, "dtype": "uint16"}}, {"name": "block_9_project_BN/beta", "shape": [64], "dtype": "float32", "quantization": {"min": -0.004007501153581903, "scale": 1.1254812687342106e-07, "dtype": "uint16"}}, {"name": "block_10_expand/kernel", "shape": [1, 1, 64, 384], "dtype": "float32", "quantization": {"min": -0.47574775468942054, "scale": 1.4821264048394672e-05, "dtype": "uint16"}}, {"name": "block_10_expand_BN/gamma", "shape": [384], "dtype": "float32", "quantization": {"min": 0.31702178716659546, "scale": 2.6328902754984085e-05, "dtype": "uint16"}}, {"name": "block_10_expand_BN/beta", "shape": [384], "dtype": "float32", "quantization": {"min": -1.9422607415381108, "scale": 6.333390098601464e-05, "dtype": "uint16"}}, {"name": "block_10_depthwise/depthwise_kernel", "shape": [3, 3, 384, 1], "dtype": "float32", "quantization": {"min": -4.092876161138899, "scale": 0.00013270462878992603, "dtype": "uint16"}}, {"name": "block_10_depthwise_BN/gamma", "shape": [384], "dtype": "float32", "quantization": {"min": 0.394768089056015, "scale": 2.8381486720111847e-05, "dtype": "uint16"}}, {"name": "block_10_depthwise_BN/beta", "shape": [384], "dtype": "float32", "quantization": {"min": -1.6718974028334352, "scale": 9.028986352181429e-05, "dtype": "uint16"}}, {"name": "block_10_project/kernel", "shape": [1, 1, 384, 96], "dtype": "float32", "quantization": {"min": -0.36791808554716365, "scale": 1.2987330493387117e-05, "dtype": "uint16"}}, {"name": "block_10_project_BN/gamma", "shape": [96], "dtype": "float32", "quantization": {"min": 1.823503017425537, "scale": 3.8976459033139795e-05, "dtype": "uint16"}}, {"name": "block_10_project_BN/beta", "shape": [96], "dtype": "float32", "quantization": {"min": -0.007316105278274081, "scale": 2.0760209069759883e-07, "dtype": "uint16"}}, {"name": "block_11_expand/kernel", "shape": [1, 1, 96, 576], "dtype": "float32", "quantization": {"min": -0.2972463101228187, "scale": 9.04253803002004e-06, "dtype": "uint16"}}, {"name": "block_11_expand_BN/gamma", "shape": [576], "dtype": "float32", "quantization": {"min": 0.0032904082909226418, "scale": 4.33935021024197e-05, "dtype": "uint16"}}, {"name": "block_11_expand_BN/beta", "shape": [576], "dtype": "float32", "quantization": {"min": -1.6779428791106679, "scale": 7.290965843011505e-05, "dtype": "uint16"}}, {"name": "block_11_depthwise/depthwise_kernel", "shape": [3, 3, 576, 1], "dtype": "float32", "quantization": {"min": -3.133142188747351, "scale": 9.415904398940198e-05, "dtype": "uint16"}}, {"name": "block_11_depthwise_BN/gamma", "shape": [576], "dtype": "float32", "quantization": {"min": 0.25278154015541077, "scale": 4.679977307196312e-05, "dtype": "uint16"}}, {"name": "block_11_depthwise_BN/beta", "shape": [576], "dtype": "float32", "quantization": {"min": -3.512585460627626, "scale": 9.423940816751069e-05, "dtype": "uint16"}}, {"name": "block_11_project/kernel", "shape": [1, 1, 576, 96], "dtype": "float32", "quantization": {"min": -0.2413814452358066, "scale": 7.573939291992677e-06, "dtype": "uint16"}}, {"name": "block_11_project_BN/gamma", "shape": [96], "dtype": "float32", "quantization": {"min": 0.6410844326019287, "scale": 3.185047386275955e-05, "dtype": "uint16"}}, {"name": "block_11_project_BN/beta", "shape": [96], "dtype": "float32", "quantization": {"min": -0.006541067176590348, "scale": 1.6448893971207432e-07, "dtype": "uint16"}}, {"name": "block_12_expand/kernel", "shape": [1, 1, 96, 576], "dtype": "float32", "quantization": {"min": -0.2486128381636138, "scale": 7.954083637177303e-06, "dtype": "uint16"}}, {"name": "block_12_expand_BN/gamma", "shape": [576], "dtype": "float32", "quantization": {"min": 0.2262759804725647, "scale": 3.899445911744207e-05, "dtype": "uint16"}}, {"name": "block_12_expand_BN/beta", "shape": [576], "dtype": "float32", "quantization": {"min": -1.9233847314982009, "scale": 6.41727189209329e-05, "dtype": "uint16"}}, {"name": "block_12_depthwise/depthwise_kernel", "shape": [3, 3, 576, 1], "dtype": "float32", "quantization": {"min": -3.0561055365457883, "scale": 9.6865468670231e-05, "dtype": "uint16"}}, {"name": "block_12_depthwise_BN/gamma", "shape": [576], "dtype": "float32", "quantization": {"min": 0.20780760049819946, "scale": 7.12940119365501e-05, "dtype": "uint16"}}, {"name": "block_12_depthwise_BN/beta", "shape": [576], "dtype": "float32", "quantization": {"min": -5.987937404133139, "scale": 0.00014177666400220525, "dtype": "uint16"}}, {"name": "block_12_project/kernel", "shape": [1, 1, 576, 96], "dtype": "float32", "quantization": {"min": -0.4602384012196751, "scale": 1.2614109554888864e-05, "dtype": "uint16"}}, {"name": "block_12_project_BN/gamma", "shape": [96], "dtype": "float32", "quantization": {"min": 0.7652530074119568, "scale": 5.201948965096934e-05, "dtype": "uint16"}}, {"name": "block_12_project_BN/beta", "shape": [96], "dtype": "float32", "quantization": {"min": -0.005546673400363233, "scale": 1.5407854108067538e-07, "dtype": "uint16"}}, {"name": "block_13_expand/kernel", "shape": [1, 1, 96, 576], "dtype": "float32", "quantization": {"min": -0.4098148392441345, "scale": 1.2289038000603768e-05, "dtype": "uint16"}}, {"name": "block_13_expand_BN/gamma", "shape": [576], "dtype": "float32", "quantization": {"min": 0.10441657155752182, "scale": 2.7695553653107598e-05, "dtype": "uint16"}}, {"name": "block_13_expand_BN/beta", "shape": [576], "dtype": "float32", "quantization": {"min": -2.8225991978073792, "scale": 7.692682867675185e-05, "dtype": "uint16"}}, {"name": "block_13_depthwise/depthwise_kernel", "shape": [3, 3, 576, 1], "dtype": "float32", "quantization": {"min": -1.4764686480825058, "scale": 4.3474137214607675e-05, "dtype": "uint16"}}, {"name": "block_13_depthwise_BN/gamma", "shape": [576], "dtype": "float32", "quantization": {"min": 0.3258284628391266, "scale": 2.2040557522990935e-05, "dtype": "uint16"}}, {"name": "block_13_depthwise_BN/beta", "shape": [576], "dtype": "float32", "quantization": {"min": -2.2444419562302746, "scale": 0.00010511131720274785, "dtype": "uint16"}}, {"name": "block_13_project/kernel", "shape": [1, 1, 576, 160], "dtype": "float32", "quantization": {"min": -0.37900237524464864, "scale": 1.1260060466580963e-05, "dtype": "uint16"}}, {"name": "block_13_project_BN/gamma", "shape": [160], "dtype": "float32", "quantization": {"min": 1.5423367023468018, "scale": 2.3179772044425063e-05, "dtype": "uint16"}}, {"name": "block_13_project_BN/beta", "shape": [160], "dtype": "float32", "quantization": {"min": -0.005028728304081676, "scale": 1.7818468939414911e-07, "dtype": "uint16"}}, {"name": "block_14_expand/kernel", "shape": [1, 1, 160, 960], "dtype": "float32", "quantization": {"min": -0.2883376711664733, "scale": 8.67781235641115e-06, "dtype": "uint16"}}, {"name": "block_14_expand_BN/gamma", "shape": [960], "dtype": "float32", "quantization": {"min": 0.2868596613407135, "scale": 3.437421965255266e-05, "dtype": "uint16"}}, {"name": "block_14_expand_BN/beta", "shape": [960], "dtype": "float32", "quantization": {"min": -1.8809992986130317, "scale": 6.184039512815306e-05, "dtype": "uint16"}}, {"name": "block_14_depthwise/depthwise_kernel", "shape": [3, 3, 960, 1], "dtype": "float32", "quantization": {"min": -3.822176608015564, "scale": 0.00010360729196865262, "dtype": "uint16"}}, {"name": "block_14_depthwise_BN/gamma", "shape": [960], "dtype": "float32", "quantization": {"min": 0.27729377150535583, "scale": 6.823479569894167e-05, "dtype": "uint16"}}, {"name": "block_14_depthwise_BN/beta", "shape": [960], "dtype": "float32", "quantization": {"min": -5.423249401605638, "scale": 0.000127961148638706, "dtype": "uint16"}}, {"name": "block_14_project/kernel", "shape": [1, 1, 960, 160], "dtype": "float32", "quantization": {"min": -0.29371408397185317, "scale": 7.979626276131633e-06, "dtype": "uint16"}}, {"name": "block_14_project_BN/gamma", "shape": [160], "dtype": "float32", "quantization": {"min": 0.8505645394325256, "scale": 2.6822298426390548e-05, "dtype": "uint16"}}, {"name": "block_14_project_BN/beta", "shape": [160], "dtype": "float32", "quantization": {"min": -0.0039799488214883215, "scale": 1.214028252901907e-07, "dtype": "uint16"}}, {"name": "block_15_expand/kernel", "shape": [1, 1, 160, 960], "dtype": "float32", "quantization": {"min": -0.28348486578745546, "scale": 9.033070955213188e-06, "dtype": "uint16"}}, {"name": "block_15_expand_BN/gamma", "shape": [960], "dtype": "float32", "quantization": {"min": 0.1771320402622223, "scale": 4.0334134786909536e-05, "dtype": "uint16"}}, {"name": "block_15_expand_BN/beta", "shape": [960], "dtype": "float32", "quantization": {"min": -2.0674442501065204, "scale": 7.129855675092322e-05, "dtype": "uint16"}}, {"name": "block_15_depthwise/depthwise_kernel", "shape": [3, 3, 960, 1], "dtype": "float32", "quantization": {"min": -3.7948687746767287, "scale": 0.00011084115940873116, "dtype": "uint16"}}, {"name": "block_15_depthwise_BN/gamma", "shape": [960], "dtype": "float32", "quantization": {"min": 0.15484334528446198, "scale": 6.653005033424502e-05, "dtype": "uint16"}}, {"name": "block_15_depthwise_BN/beta", "shape": [960], "dtype": "float32", "quantization": {"min": -6.155155144704055, "scale": 0.00013949360101312306, "dtype": "uint16"}}, {"name": "block_15_project/kernel", "shape": [1, 1, 960, 160], "dtype": "float32", "quantization": {"min": -0.43854884499769387, "scale": 1.2946473548966578e-05, "dtype": "uint16"}}, {"name": "block_15_project_BN/gamma", "shape": [160], "dtype": "float32", "quantization": {"min": 1.2605903148651123, "scale": 4.220411944300212e-05, "dtype": "uint16"}}, {"name": "block_15_project_BN/beta", "shape": [160], "dtype": "float32", "quantization": {"min": -0.002696747670498391, "scale": 7.835510563089145e-08, "dtype": "uint16"}}, {"name": "block_16_expand/kernel", "shape": [1, 1, 160, 960], "dtype": "float32", "quantization": {"min": -0.38009920433019256, "scale": 1.203188263525031e-05, "dtype": "uint16"}}, {"name": "block_16_expand_BN/gamma", "shape": [960], "dtype": "float32", "quantization": {"min": 0.26418736577033997, "scale": 5.201917177772071e-05, "dtype": "uint16"}}, {"name": "block_16_expand_BN/beta", "shape": [960], "dtype": "float32", "quantization": {"min": -1.831397485803974, "scale": 6.051205966641249e-05, "dtype": "uint16"}}, {"name": "block_16_depthwise/depthwise_kernel", "shape": [3, 3, 960, 1], "dtype": "float32", "quantization": {"min": -2.8150896892982717, "scale": 9.099132747101531e-05, "dtype": "uint16"}}, {"name": "block_16_depthwise_BN/gamma", "shape": [960], "dtype": "float32", "quantization": {"min": 0.4470858573913574, "scale": 4.628703442683634e-05, "dtype": "uint16"}}, {"name": "block_16_depthwise_BN/beta", "shape": [960], "dtype": "float32", "quantization": {"min": -3.727188574921269, "scale": 0.0001260420200507683, "dtype": "uint16"}}, {"name": "block_16_project/kernel", "shape": [1, 1, 960, 320], "dtype": "float32", "quantization": {"min": -0.43903714228960616, "scale": 1.5599671059181572e-05, "dtype": "uint16"}}, {"name": "block_16_project_BN/gamma", "shape": [320], "dtype": "float32", "quantization": {"min": 1.7422137260437012, "scale": 2.698276211561123e-05, "dtype": "uint16"}}, {"name": "block_16_project_BN/beta", "shape": [320], "dtype": "float32", "quantization": {"min": -0.002222460440730279, "scale": 7.927166645492507e-08, "dtype": "uint16"}}, {"name": "Conv_1/kernel", "shape": [1, 1, 320, 1280], "dtype": "float32", "quantization": {"min": -0.14540331179457014, "scale": 4.4725718792546955e-06, "dtype": "uint16"}}, {"name": "Conv_1_bn/gamma", "shape": [1280], "dtype": "float32", "quantization": {"min": 4.06049919128418, "scale": 1.6686135447251765e-05, "dtype": "uint16"}}, {"name": "Conv_1_bn/beta", "shape": [1280], "dtype": "float32", "quantization": {"min": -5.496699333190918, "scale": 2.777408187445945e-05, "dtype": "uint16"}}, {"name": "bn_Conv1/moving_mean", "shape": [32], "dtype": "float32", "quantization": {"min": -1.6712032032202118, "scale": 5.9494596056255314e-05, "dtype": "uint16"}}, {"name": "bn_Conv1/moving_variance", "shape": [32], "dtype": "float32", "quantization": {"min": 3.907289699258179e-36, "scale": 3.310174893630745e-06, "dtype": "uint16"}}, {"name": "expanded_conv_depthwise_BN/moving_mean", "shape": [32], "dtype": "float32", "quantization": {"min": -13.702363660117804, "scale": 0.0003889402117546921, "dtype": "uint16"}}, {"name": "expanded_conv_depthwise_BN/moving_variance", "shape": [32], "dtype": "float32", "quantization": {"min": 3.908455938312904e-36, "scale": 0.006987229435487716, "dtype": "uint16"}}, {"name": "expanded_conv_project_BN/moving_mean", "shape": [16], "dtype": "float32", "quantization": {"min": -4.3720327840295585, "scale": 0.0001134738193057063, "dtype": "uint16"}}, {"name": "expanded_conv_project_BN/moving_variance", "shape": [16], "dtype": "float32", "quantization": {"min": 0.13516327738761902, "scale": 9.274677816641142e-06, "dtype": "uint16"}}, {"name": "block_1_expand_BN/moving_mean", "shape": [96], "dtype": "float32", "quantization": {"min": -0.053720792165071404, "scale": 1.4314856151425976e-06, "dtype": "uint16"}}, {"name": "block_1_expand_BN/moving_variance", "shape": [96], "dtype": "float32", "quantization": {"min": 1.3623104095458984, "scale": 0.00024536844703055557, "dtype": "uint16"}}, {"name": "block_1_depthwise_BN/moving_mean", "shape": [96], "dtype": "float32", "quantization": {"min": -29.527931586903165, "scale": 0.001045199518137523, "dtype": "uint16"}}, {"name": "block_1_depthwise_BN/moving_variance", "shape": [96], "dtype": "float32", "quantization": {"min": 0.24053356051445007, "scale": 0.0011773015251874178, "dtype": "uint16"}}, {"name": "block_1_project_BN/moving_mean", "shape": [24], "dtype": "float32", "quantization": {"min": -5.183038790063907, "scale": 0.0001237061146132013, "dtype": "uint16"}}, {"name": "block_1_project_BN/moving_variance", "shape": [24], "dtype": "float32", "quantization": {"min": 0.16491173207759857, "scale": 3.649405745698884e-05, "dtype": "uint16"}}, {"name": "block_2_expand_BN/moving_mean", "shape": [144], "dtype": "float32", "quantization": {"min": -0.007737216693970562, "scale": 2.3498805484937623e-07, "dtype": "uint16"}}, {"name": "block_2_expand_BN/moving_variance", "shape": [144], "dtype": "float32", "quantization": {"min": 1.87905297455087e-34, "scale": 0.0006005966827981649, "dtype": "uint16"}}, {"name": "block_2_depthwise_BN/moving_mean", "shape": [144], "dtype": "float32", "quantization": {"min": -11.358781943034186, "scale": 0.00022942399400190238, "dtype": "uint16"}}, {"name": "block_2_depthwise_BN/moving_variance", "shape": [144], "dtype": "float32", "quantization": {"min": 3.917904591177378e-36, "scale": 0.0003405336039630392, "dtype": "uint16"}}, {"name": "block_2_project_BN/moving_mean", "shape": [24], "dtype": "float32", "quantization": {"min": -4.109964303969609, "scale": 0.00013350541835210685, "dtype": "uint16"}}, {"name": "block_2_project_BN/moving_variance", "shape": [24], "dtype": "float32", "quantization": {"min": 0.28905218839645386, "scale": 3.6637465813944486e-05, "dtype": "uint16"}}, {"name": "block_3_expand_BN/moving_mean", "shape": [144], "dtype": "float32", "quantization": {"min": -0.008900894025802394, "scale": 2.9802765773127954e-07, "dtype": "uint16"}}, {"name": "block_3_expand_BN/moving_variance", "shape": [144], "dtype": "float32", "quantization": {"min": 3.3264830112457275, "scale": 0.0007192168254332783, "dtype": "uint16"}}, {"name": "block_3_depthwise_BN/moving_mean", "shape": [144], "dtype": "float32", "quantization": {"min": -28.373899039776873, "scale": 0.000721449796327821, "dtype": "uint16"}}, {"name": "block_3_depthwise_BN/moving_variance", "shape": [144], "dtype": "float32", "quantization": {"min": 0.02723674289882183, "scale": 0.0010916411538170743, "dtype": "uint16"}}, {"name": "block_3_project_BN/moving_mean", "shape": [32], "dtype": "float32", "quantization": {"min": -3.2997262928372546, "scale": 0.00014765197301043739, "dtype": "uint16"}}, {"name": "block_3_project_BN/moving_variance", "shape": [32], "dtype": "float32", "quantization": {"min": 0.35664138197898865, "scale": 7.051939393850652e-05, "dtype": "uint16"}}, {"name": "block_4_expand_BN/moving_mean", "shape": [192], "dtype": "float32", "quantization": {"min": -0.0032649275009960397, "scale": 9.353217122628813e-08, "dtype": "uint16"}}, {"name": "block_4_expand_BN/moving_variance", "shape": [192], "dtype": "float32", "quantization": {"min": 0.942261278629303, "scale": 0.00038214528679784054, "dtype": "uint16"}}, {"name": "block_4_depthwise_BN/moving_mean", "shape": [192], "dtype": "float32", "quantization": {"min": -5.328025337650564, "scale": 0.00017526399137008432, "dtype": "uint16"}}, {"name": "block_4_depthwise_BN/moving_variance", "shape": [192], "dtype": "float32", "quantization": {"min": 0.0010796812130138278, "scale": 0.00020162003472974058, "dtype": "uint16"}}, {"name": "block_4_project_BN/moving_mean", "shape": [32], "dtype": "float32", "quantization": {"min": -2.7783341505820904, "scale": 8.165566937787187e-05, "dtype": "uint16"}}, {"name": "block_4_project_BN/moving_variance", "shape": [32], "dtype": "float32", "quantization": {"min": 0.13486631214618683, "scale": 2.974559338167202e-05, "dtype": "uint16"}}, {"name": "block_5_expand_BN/moving_mean", "shape": [192], "dtype": "float32", "quantization": {"min": -0.007210025541204966, "scale": 2.2044288810361593e-07, "dtype": "uint16"}}, {"name": "block_5_expand_BN/moving_variance", "shape": [192], "dtype": "float32", "quantization": {"min": 1.251760482788086, "scale": 0.0004103599391758847, "dtype": "uint16"}}, {"name": "block_5_depthwise_BN/moving_mean", "shape": [192], "dtype": "float32", "quantization": {"min": -18.314145558637293, "scale": 0.0004021463199894006, "dtype": "uint16"}}, {"name": "block_5_depthwise_BN/moving_variance", "shape": [192], "dtype": "float32", "quantization": {"min": 0.0011667117942124605, "scale": 0.00018717913023366906, "dtype": "uint16"}}, {"name": "block_5_project_BN/moving_mean", "shape": [32], "dtype": "float32", "quantization": {"min": -1.9711929828431047, "scale": 7.018918184172855e-05, "dtype": "uint16"}}, {"name": "block_5_project_BN/moving_variance", "shape": [32], "dtype": "float32", "quantization": {"min": 0.08496394753456116, "scale": 9.928833677065294e-06, "dtype": "uint16"}}, {"name": "block_6_expand_BN/moving_mean", "shape": [192], "dtype": "float32", "quantization": {"min": -0.015818443700149364, "scale": 5.165880833463755e-07, "dtype": "uint16"}}, {"name": "block_6_expand_BN/moving_variance", "shape": [192], "dtype": "float32", "quantization": {"min": 1.724774956703186, "scale": 0.0007744966204855638, "dtype": "uint16"}}, {"name": "block_6_depthwise_BN/moving_mean", "shape": [192], "dtype": "float32", "quantization": {"min": -15.5211196408716, "scale": 0.0004693697726161727, "dtype": "uint16"}}, {"name": "block_6_depthwise_BN/moving_variance", "shape": [192], "dtype": "float32", "quantization": {"min": 0.11462362855672836, "scale": 0.0008212048197998611, "dtype": "uint16"}}, {"name": "block_6_project_BN/moving_mean", "shape": [64], "dtype": "float32", "quantization": {"min": -6.129372919579888, "scale": 0.00016865810686202983, "dtype": "uint16"}}, {"name": "block_6_project_BN/moving_variance", "shape": [64], "dtype": "float32", "quantization": {"min": 0.15243910253047943, "scale": 0.0002048066056292199, "dtype": "uint16"}}, {"name": "block_7_expand_BN/moving_mean", "shape": [384], "dtype": "float32", "quantization": {"min": -0.00290521256069431, "scale": 7.892025863018336e-08, "dtype": "uint16"}}, {"name": "block_7_expand_BN/moving_variance", "shape": [384], "dtype": "float32", "quantization": {"min": 0.5944852828979492, "scale": 0.00012096619818843073, "dtype": "uint16"}}, {"name": "block_7_depthwise_BN/moving_mean", "shape": [384], "dtype": "float32", "quantization": {"min": -21.4346889992223, "scale": 0.0003678827597909946, "dtype": "uint16"}}, {"name": "block_7_depthwise_BN/moving_variance", "shape": [384], "dtype": "float32", "quantization": {"min": 0.0005546335596591234, "scale": 0.0001939080503054473, "dtype": "uint16"}}, {"name": "block_7_project_BN/moving_mean", "shape": [64], "dtype": "float32", "quantization": {"min": -0.8938516869537343, "scale": 5.020228514202383e-05, "dtype": "uint16"}}, {"name": "block_7_project_BN/moving_variance", "shape": [64], "dtype": "float32", "quantization": {"min": 0.11424393951892853, "scale": 8.456353997714898e-05, "dtype": "uint16"}}, {"name": "block_8_expand_BN/moving_mean", "shape": [384], "dtype": "float32", "quantization": {"min": -0.005351959471976292, "scale": 1.4727461397843401e-07, "dtype": "uint16"}}, {"name": "block_8_expand_BN/moving_variance", "shape": [384], "dtype": "float32", "quantization": {"min": 0.8680068254470825, "scale": 0.00021381540975863903, "dtype": "uint16"}}, {"name": "block_8_depthwise_BN/moving_mean", "shape": [384], "dtype": "float32", "quantization": {"min": -9.671367582453009, "scale": 0.00018318024854542889, "dtype": "uint16"}}, {"name": "block_8_depthwise_BN/moving_variance", "shape": [384], "dtype": "float32", "quantization": {"min": 0.00031639530789107084, "scale": 0.00017530648703757592, "dtype": "uint16"}}, {"name": "block_8_project_BN/moving_mean", "shape": [64], "dtype": "float32", "quantization": {"min": -1.0917388152828784, "scale": 3.140790607833367e-05, "dtype": "uint16"}}, {"name": "block_8_project_BN/moving_variance", "shape": [64], "dtype": "float32", "quantization": {"min": 0.06991906464099884, "scale": 8.633121605949725e-06, "dtype": "uint16"}}, {"name": "block_9_expand_BN/moving_mean", "shape": [384], "dtype": "float32", "quantization": {"min": -0.0063238905509987115, "scale": 1.8831751737585872e-07, "dtype": "uint16"}}, {"name": "block_9_expand_BN/moving_variance", "shape": [384], "dtype": "float32", "quantization": {"min": 0.8432875871658325, "scale": 0.0002479756497823829, "dtype": "uint16"}}, {"name": "block_9_depthwise_BN/moving_mean", "shape": [384], "dtype": "float32", "quantization": {"min": -4.667988623399124, "scale": 0.00010523205264769549, "dtype": "uint16"}}, {"name": "block_9_depthwise_BN/moving_variance", "shape": [384], "dtype": "float32", "quantization": {"min": 0.007763527799397707, "scale": 5.4994805647693946e-05, "dtype": "uint16"}}, {"name": "block_9_project_BN/moving_mean", "shape": [64], "dtype": "float32", "quantization": {"min": -1.7211407869024227, "scale": 4.14902679869446e-05, "dtype": "uint16"}}, {"name": "block_9_project_BN/moving_variance", "shape": [64], "dtype": "float32", "quantization": {"min": 0.07045809924602509, "scale": 5.0914847369669525e-06, "dtype": "uint16"}}, {"name": "block_10_expand_BN/moving_mean", "shape": [384], "dtype": "float32", "quantization": {"min": -0.01672454437573071, "scale": 4.666316334848556e-07, "dtype": "uint16"}}, {"name": "block_10_expand_BN/moving_variance", "shape": [384], "dtype": "float32", "quantization": {"min": 2.256023645401001, "scale": 0.00039793130434140594, "dtype": "uint16"}}, {"name": "block_10_depthwise_BN/moving_mean", "shape": [384], "dtype": "float32", "quantization": {"min": -10.589684108688438, "scale": 0.00024405817259019215, "dtype": "uint16"}}, {"name": "block_10_depthwise_BN/moving_variance", "shape": [384], "dtype": "float32", "quantization": {"min": 0.16886615753173828, "scale": 0.00030951780431410846, "dtype": "uint16"}}, {"name": "block_10_project_BN/moving_mean", "shape": [96], "dtype": "float32", "quantization": {"min": -4.493614218896592, "scale": 0.0001200858957481719, "dtype": "uint16"}}, {"name": "block_10_project_BN/moving_variance", "shape": [96], "dtype": "float32", "quantization": {"min": 0.39816218614578247, "scale": 8.592186034512463e-05, "dtype": "uint16"}}, {"name": "block_11_expand_BN/moving_mean", "shape": [576], "dtype": "float32", "quantization": {"min": -0.0033727367577187995, "scale": 1.0045082075645697e-07, "dtype": "uint16"}}, {"name": "block_11_expand_BN/moving_variance", "shape": [576], "dtype": "float32", "quantization": {"min": 1.2047707903734602e-14, "scale": 0.0001368808375258388, "dtype": "uint16"}}, {"name": "block_11_depthwise_BN/moving_mean", "shape": [576], "dtype": "float32", "quantization": {"min": -7.1956413339111505, "scale": 0.00016202385296235506, "dtype": "uint16"}}, {"name": "block_11_depthwise_BN/moving_variance", "shape": [576], "dtype": "float32", "quantization": {"min": 6.220917566679418e-05, "scale": 0.000163232164490641, "dtype": "uint16"}}, {"name": "block_11_project_BN/moving_mean", "shape": [96], "dtype": "float32", "quantization": {"min": -2.0552275214031903, "scale": 6.491968922241425e-05, "dtype": "uint16"}}, {"name": "block_11_project_BN/moving_variance", "shape": [96], "dtype": "float32", "quantization": {"min": 0.08630231767892838, "scale": 3.3857888221158637e-06, "dtype": "uint16"}}, {"name": "block_12_expand_BN/moving_mean", "shape": [576], "dtype": "float32", "quantization": {"min": -0.005122146700502711, "scale": 1.6246857298514641e-07, "dtype": "uint16"}}, {"name": "block_12_expand_BN/moving_variance", "shape": [576], "dtype": "float32", "quantization": {"min": 0.7502151131629944, "scale": 0.00014632136832479027, "dtype": "uint16"}}, {"name": "block_12_depthwise_BN/moving_mean", "shape": [576], "dtype": "float32", "quantization": {"min": -10.957068163809991, "scale": 0.00021864285756096084, "dtype": "uint16"}}, {"name": "block_12_depthwise_BN/moving_variance", "shape": [576], "dtype": "float32", "quantization": {"min": 6.061691237846389e-06, "scale": 0.00013030152003779547, "dtype": "uint16"}}, {"name": "block_12_project_BN/moving_mean", "shape": [96], "dtype": "float32", "quantization": {"min": -2.0262409285003065, "scale": 5.43519562365962e-05, "dtype": "uint16"}}, {"name": "block_12_project_BN/moving_variance", "shape": [96], "dtype": "float32", "quantization": {"min": 0.05914381146430969, "scale": 3.243224830187967e-06, "dtype": "uint16"}}, {"name": "block_13_expand_BN/moving_mean", "shape": [576], "dtype": "float32", "quantization": {"min": -0.011270532768426907, "scale": 3.068063908650308e-07, "dtype": "uint16"}}, {"name": "block_13_expand_BN/moving_variance", "shape": [576], "dtype": "float32", "quantization": {"min": 0.7898508310317993, "scale": 0.00024296497783863163, "dtype": "uint16"}}, {"name": "block_13_depthwise_BN/moving_mean", "shape": [576], "dtype": "float32", "quantization": {"min": -8.04958142686365, "scale": 0.0001880743324033563, "dtype": "uint16"}}, {"name": "block_13_depthwise_BN/moving_variance", "shape": [576], "dtype": "float32", "quantization": {"min": 0.030974578112363815, "scale": 0.0003350417845293924, "dtype": "uint16"}}, {"name": "block_13_project_BN/moving_mean", "shape": [160], "dtype": "float32", "quantization": {"min": -4.782966232343461, "scale": 0.00014936967091419573, "dtype": "uint16"}}, {"name": "block_13_project_BN/moving_variance", "shape": [160], "dtype": "float32", "quantization": {"min": 0.15821409225463867, "scale": 5.120220796971151e-05, "dtype": "uint16"}}, {"name": "block_14_expand_BN/moving_mean", "shape": [960], "dtype": "float32", "quantization": {"min": -0.003459907396110088, "scale": 1.1530718509998293e-07, "dtype": "uint16"}}, {"name": "block_14_expand_BN/moving_variance", "shape": [960], "dtype": "float32", "quantization": {"min": 0.39425304532051086, "scale": 9.7513736826864e-05, "dtype": "uint16"}}, {"name": "block_14_depthwise_BN/moving_mean", "shape": [960], "dtype": "float32", "quantization": {"min": -5.382126530991945, "scale": 0.00017695050404365942, "dtype": "uint16"}}, {"name": "block_14_depthwise_BN/moving_variance", "shape": [960], "dtype": "float32", "quantization": {"min": 5.2356581363710575e-06, "scale": 0.0003373483231606928, "dtype": "uint16"}}, {"name": "block_14_project_BN/moving_mean", "shape": [160], "dtype": "float32", "quantization": {"min": -2.2909440667494456, "scale": 6.451909616845346e-05, "dtype": "uint16"}}, {"name": "block_14_project_BN/moving_variance", "shape": [160], "dtype": "float32", "quantization": {"min": 0.11497694998979568, "scale": 9.543095967803638e-06, "dtype": "uint16"}}, {"name": "block_15_expand_BN/moving_mean", "shape": [960], "dtype": "float32", "quantization": {"min": -0.0055991010451772495, "scale": 1.8999969612736264e-07, "dtype": "uint16"}}, {"name": "block_15_expand_BN/moving_variance", "shape": [960], "dtype": "float32", "quantization": {"min": 0.7047818303108215, "scale": 0.0001915431135423107, "dtype": "uint16"}}, {"name": "block_15_depthwise_BN/moving_mean", "shape": [960], "dtype": "float32", "quantization": {"min": -15.152243411849309, "scale": 0.0003587433627352631, "dtype": "uint16"}}, {"name": "block_15_depthwise_BN/moving_variance", "shape": [960], "dtype": "float32", "quantization": {"min": 1.7340735212201253e-06, "scale": 0.00033211996829370034, "dtype": "uint16"}}, {"name": "block_15_project_BN/moving_mean", "shape": [160], "dtype": "float32", "quantization": {"min": -2.4669351989766177, "scale": 5.455166067349117e-05, "dtype": "uint16"}}, {"name": "block_15_project_BN/moving_variance", "shape": [160], "dtype": "float32", "quantization": {"min": 0.02562689408659935, "scale": 1.7836807616708153e-06, "dtype": "uint16"}}, {"name": "block_16_expand_BN/moving_mean", "shape": [960], "dtype": "float32", "quantization": {"min": -0.007748075691806745, "scale": 2.953785860930481e-07, "dtype": "uint16"}}, {"name": "block_16_expand_BN/moving_variance", "shape": [960], "dtype": "float32", "quantization": {"min": 0.6637460589408875, "scale": 0.0005514860107722813, "dtype": "uint16"}}, {"name": "block_16_depthwise_BN/moving_mean", "shape": [960], "dtype": "float32", "quantization": {"min": -5.66917389648643, "scale": 0.00013555806643758948, "dtype": "uint16"}}, {"name": "block_16_depthwise_BN/moving_variance", "shape": [960], "dtype": "float32", "quantization": {"min": 3.5261596167401876e-06, "scale": 0.000877697088212235, "dtype": "uint16"}}, {"name": "block_16_project_BN/moving_mean", "shape": [320], "dtype": "float32", "quantization": {"min": -9.625077688687634, "scale": 0.0002019783793320106, "dtype": "uint16"}}, {"name": "block_16_project_BN/moving_variance", "shape": [320], "dtype": "float32", "quantization": {"min": 0.14592725038528442, "scale": 7.189220300553511e-05, "dtype": "uint16"}}, {"name": "Conv_1_bn/moving_mean", "shape": [1280], "dtype": "float32", "quantization": {"min": -0.002276606558320942, "scale": 6.569155581489329e-08, "dtype": "uint16"}}, {"name": "Conv_1_bn/moving_variance", "shape": [1280], "dtype": "float32", "quantization": {"min": 0.6867758631706238, "scale": 1.9940931045591598e-05, "dtype": "uint16"}}]}]}